assets/model/punctuation_normalize/state_dict_20240207002857.pt (torch, 10909 bytes, 18 tensors)

gru.weight_ih_l0 f4 [24, 1]
0	0x3f04416e	0.5166234
1	0xbfc878a6	-1.5661819
2	0xbf54ace5	-0.83076316
3	0x3e5080a8	0.20361578
4	0x3f83b2fd	1.0288998
5	0x3d4f13d3	0.050556015
6	0x3f52a22b	0.822787
7	0xbf993c09	-1.1971446
8	0x3db47730	0.08811796
9	0xbeee6e1b	-0.4656838
10	0xbe25f449	-0.16206469
11	0x3cce358b	0.025172016
12	0x3f7093cb	0.93975514
13	0x3effaa3e	0.49934572
14	0xbe702e8c	-0.23455256
15	0xbf56a76d	-0.8384922
16	0x3f6b52b5	0.91923076
17	0xbfff05f0	-1.9923687
18	0xbecc8d9e	-0.39951795
19	0x3e88482c	0.26617563
20	0xbf205833	-0.6263458
21	0xbda95c54	-0.08269563
22	0xbfabcb6a	-1.3421452
23	0xbfbd5522	-1.4791605

gru.weight_hh_l0 f4 [24, 8]
0	0xbe6bd09c	-0.23028797
1	0xbe53fb1f	-0.20701264
2	0xbe4b6cbc	-0.19865698
3	0xbe07e072	-0.13269213
4	0x3d106b4f	0.035258587
5	0x3ddf5d52	0.10906471
6	0x3e5d4594	0.21608573
7	0x3e046830	0.1293037
8	0x3e39c9cc	0.18143386
9	0x3dacc891	0.084366925
10	0xbeeb5542	-0.45963484
11	0x3e8c741b	0.2743233
12	0x3e205396	0.15656886
13	0x3e46e611	0.19423701
14	0xbbe346af	-0.0069359164
15	0xbf05c235	-0.5224946
16	0xbe300642	-0.17189887
17	0xbed79c79	-0.42111567
18	0x3df627bc	0.120192975
19	0xbf0a7f70	-0.54100704
20	0x3f0aa224	0.54153657
21	0x3ea0a87f	0.31378552
22	0x3e9376e6	0.2880165
23	0x3ef1e230	0.4724288
24	0x3ff55c96	1.916888
25	0xbfa3de0a	-1.2802136
26	0x3d00ce7c	0.03144692
27	0x405828d6	3.3774924
28	0x3e78eb23	0.24308448
29	0xbf6bbf5a	-0.92088854
30	0xc00b1abe	-2.1735072
31	0xbd4f8715	-0.050665934
32	0x3f37aee4	0.71751237
33	0xbf90dab6	-1.1316745
34	0xbe3c2366	-0.18372878
35	0xbeadb9de	-0.33930868
36	0x3ec67121	0.38758186
37	0x3b9ed4b8	0.0048471354
38	0xbf17fbd1	-0.59368616
39	0xbfb049ef	-1.3772563
40	0x3af1368b	0.0018403096
41	0xbe7003ee	-0.23438999
42	0xbedadc1a	-0.4274605
43	0x3eff9d0a	0.499245
44	0x3d88a353	0.066717766
45	0xbe6e9a42	-0.23301032
46	0xbe307c8b	-0.1723501
47	0xbdd06be3	-0.10176828
48	0x3eba898f	0.36433074
49	0xbed2bb82	-0.41158682
50	0xbdd233f7	-0.10263818
51	0xc02635d3	-2.5970352
52	0x3e92d3e0	0.28677273
53	0x3f23d874	0.64002156
54	0xbee30088	-0.44336343
55	0xbea87ff5	-0.32910123
56	0xbeae461e	-0.3403787
57	0x3e5bf059	0.21478404
58	0xbe7f51df	-0.24933575
59	0x3b47ac43	0.0030467666
60	0x3ef263fb	0.47341904
61	0x3e803754	0.25042212
62	0x3eb2209c	0.34790504
63	0x3e40ac16	0.18815646
64	0xbfc06c0e	-1.5032976
65	0x4009439d	2.1447518
66	0xbf73c8b0	-0.952281
67	0xbf27950b	-0.65461797
68	0x3f998714	1.1994348
69	0x3fafa444	1.3722005
70	0x3f814049	1.0097743
71	0x3f85d578	1.045577
72	0xc0055bf3	-2.0837371
73	0x4093612e	4.6056128
74	0xbf4fa086	-0.81104314
75	0xc08ff234	-4.498316
76	0x3f9d9db7	1.2313756
77	0x3fa76081	1.3076326
78	0x40532d78	3.2996502
79	0x402ade9c	2.669837
80	0xbf176d46	-0.59151113
81	0xbf26e44e	-0.65192115
82	0xbfbaec7d	-1.460342
83	0xc0367ecb	-2.8514888
84	0x3f09ffb2	0.53905785
85	0x3da2a9ad	0.07942519
86	0xbed5e32b	-0.41774878
87	0xbdbd3998	-0.09239501
88	0x4022be8c	2.54288
89	0xc0597e16	-3.3983207
90	0x3ebd0f3b	0.36925682
91	0xbfc75217	-1.5571927
92	0xbff652b3	-1.9243988
93	0xbf91f2f3	-1.1402267
94	0xc031a28f	-2.7755468
95	0xbfc6aaab	-1.5520834
96	0xbf822e45	-1.017037
97	0x3f84a5bc	1.0363078
98	0xbfc3751f	-1.5270118
99	0xc07f385f	-3.9878156
100	0x3f155eb7	0.5834765
101	0x3e156772	0.14590243
102	0x3eea83cd	0.4580368
103	0xbe8590d0	-0.26087046
104	0x3b1560fb	0.00227934
105	0x3f551d44	0.8324778
106	0xc030047e	-2.7502742
107	0xc067154c	-3.6106749
108	0x3f83c04d	1.029306
109	0x3f83b0db	1.0288347
110	0x3e9a843d	0.30179015
111	0xbf87c9d2	-1.0608466
112	0xbfc15725	-1.5104719
113	0x40117805	2.2729504
114	0xbfe23d75	-1.7675005
115	0xbf55a89d	-0.8346041
116	0x3fbf738f	1.4957141
117	0x400c8c1c	2.1960516
118	0x3fe783d3	1.8087105
119	0x3eb439d4	0.3520037
120	0xbf8e704f	-1.1128024
121	0x4017fd9c	2.374854
122	0xbf3ae2a7	-0.73002094
123	0x3ce34736	0.027743917
124	0x3f9a6609	1.2062389
125	0x3fc26980	1.5188446
126	0x3fab8de4	1.3402677
127	0x3f91fa54	1.1404519
128	0x3ecbf3e2	0.39834505
129	0x3e1eb52a	0.15498796
130	0xbcd7b4e1	-0.026331367
131	0x3f1fca1c	0.6241777
132	0x3e69742e	0.22798225
133	0x3d4d11d6	0.050065838
134	0xbde805c4	-0.11329225
135	0x3e897649	0.26848057
136	0x3ebbfb07	0.36714956
137	0xbdea580e	-0.11442576
138	0xbd3a21cb	-0.045442384
139	0xbe3b5ebb	-0.18297856
140	0xbe5b70f5	-0.21429808
141	0xbebb5a9d	-0.3659257
142	0xbe589a13	-0.21152525
143	0xbe5f9bf4	-0.21836835
144	0x3da06306	0.07831387
145	0xbf2a49ac	-0.66518664
146	0xbeccbb50	-0.39986658
147	0x3f810121	1.007847
148	0x3e9f2bd8	0.31088138
149	0xbce4d506	-0.027933609
150	0xbdd891be	-0.10574673
151	0x3eb98301	0.3623276
152	0x3f665222	0.89969075
153	0xbe9b2a8b	-0.30305895
154	0xbf045801	-0.51696783
155	0xbe98fa9f	-0.2987871
156	0x3e23bb7b	0.15989487
157	0x3ef44c9c	0.47714698
158	0xbf0414fb	-0.51594514
159	0xbf979bfd	-1.1844479
160	0x3d505d19	0.050870035
161	0x3f6003da	0.87505877
162	0x3f09a845	0.53772384
163	0xbe7bc707	-0.24587642
164	0x3d256cec	0.04038708
165	0x3d459d30	0.04824561
166	0x3e907beb	0.28219542
167	0x3f55119d	0.8323
168	0x3d4379cf	0.047723588
169	0x3e854703	0.2603074
170	0x3e6274e1	0.22114898
171	0xbefad118	-0.4898765
172	0x3d988ea0	0.074490786
173	0xbe4ece7f	-0.2019596
174	0xbe80ffd2	-0.25195175
175	0x3d6c1dd3	0.05764563
176	0xbead0050	-0.337893
177	0xbd09ae8d	-0.03361373
178	0x3e6bbe8e	0.2302191
179	0xbf637900	-0.88856506
180	0x3e21b037	0.15789877
181	0xbe99834b	-0.2998298
182	0xbdc06062	-0.093933836
183	0x3dc0a340	0.094061375
184	0xbe05434b	-0.13013951
185	0x3e7141b6	0.23560223
186	0x3e4764e4	0.1947208
187	0x3e8ea4b9	0.27860048
188	0xbd89c081	-0.0672617
189	0xbf01dee9	-0.5073076
190	0xbe8686cf	-0.26274726
191	0xbe805e33	-0.25071868

gru.bias_ih_l0 f4 [24]
0	0x3c9ce3db	0.019151619
1	0xbbaf77bb	-0.005354849
2	0x3ebf4026	0.3735363
3	0x3e5e7f60	0.21728277
4	0x3e023d23	0.12718634
5	0x3e02e931	0.12784268
6	0xbe6e21a3	-0.23255019
7	0x3dbbb84d	0.09166012
8	0xbf64b9a9	-0.89345795
9	0xbf82709a	-1.0190613
10	0xbfa2ac5e	-1.2708852
11	0xbf2406d7	-0.64072937
12	0xbbeec465	-0.0072865956
13	0xbf31ff07	-0.69529766
14	0xbf800e4e	-1.0004365
15	0xbf9bbec0	-1.2167587
16	0xbcde7e0d	-0.027159715
17	0x3c3b6777	0.011438242
18	0x3e47ddbd	0.1951818
19	0x3e3af726	0.18258342
20	0xbe3d442d	-0.18483038
21	0xbe39e984	-0.18155485
22	0x3c930923	0.017948693
23	0x3e4b4476	0.19850335

gru.bias_hh_l0 f4 [24]
0	0x3c9ce3db	0.019151619
1	0xbbaf77bb	-0.005354849
2	0x3ebf4026	0.3735363
3	0x3e5e7f60	0.21728277
4	0x3e023d23	0.12718634
5	0x3e02e931	0.12784268
6	0xbe6e21a3	-0.23255019
7	0x3dbbb84d	0.09166012
8	0xbf64b9a9	-0.89345795
9	0xbf82709a	-1.0190613
10	0xbfa2ac5e	-1.2708852
11	0xbf2406d7	-0.64072937
12	0xbbeec465	-0.0072865956
13	0xbf31ff07	-0.69529766
14	0xbf800e4e	-1.0004365
15	0xbf9bbec0	-1.2167587
16	0xba10b667	-0.0005520344
17	0x3e6a8f0c	0.2290613
18	0x3e8d1398	0.2755401
19	0x3dc1651d	0.09443114
20	0xbe74e586	-0.23915681
21	0xbe39af2f	-0.18133233
22	0xbe1e69e1	-0.15470077
23	0x3edef472	0.43545872

gru.weight_ih_l0_reverse f4 [24, 1]
0	0x3f50e0b8	0.81592894
1	0x3f6403d3	0.89068335
2	0xbe93d782	-0.28875357
3	0xbf50c09e	-0.8154391
4	0xbf6b9a04	-0.92031884
5	0x3e12c904	0.14334494
6	0x3eceefa7	0.40417215
7	0xbfa87438	-1.3160467
8	0xbf4da1be	-0.80324924
9	0xbd95d654	-0.073162705
10	0xbf047e4d	-0.5175522
11	0x3e822efb	0.25426468
12	0x3e5898f7	0.21152101
13	0x3d9b2859	0.07576055
14	0xbdbed3cf	-0.09317743
15	0x3d83dd9d	0.06438754
16	0x3d2a1947	0.041528013
17	0x3f5828ff	0.84437555
18	0x3fb37b71	1.4022046
19	0xbf749e55	-0.95554096
20	0xbf543c7b	-0.82904786
21	0x3ea53b9f	0.3227205
22	0xbcd34dce	-0.025793936
23	0x3f91268a	1.1339886

gru.weight_hh_l0_reverse f4 [24, 8]
0	0x3cad3e07	0.021147741
1	0x3e5b5306	0.2141839
2	0xbf0408d6	-0.5157598
3	0x3f187738	0.59556913
4	0x3f2f3799	0.6844421
5	0xbff7dfaf	-1.9365138
6	0xbec62fcd	-0.38708344
7	0xbdf5b378	-0.119971216
8	0x3f28f24d	0.6599472
9	0x3efb2dc8	0.49058366
10	0x3f23c327	0.63969654
11	0xbf815f3d	-1.010719
12	0xbf8ee31e	-1.1163061
13	0xbf096556	-0.5367025
14	0x3ef08888	0.46979165
15	0x3f4edec6	0.80808675
16	0x3eb3e1fd	0.35133353
17	0x3f4e5081	0.8059159
18	0x3e8c33cc	0.27383268
19	0xbf4ef3e3	-0.8084089
20	0xbe641df5	-0.22277053
21	0xbea26833	-0.31720123
22	0x3f2f6205	0.6850894
23	0xbf3b04a6	-0.7305397
24	0xbe7b2aef	-0.24528097
25	0xbedcc1ae	-0.43116516
26	0xbf1c2ef1	-0.61009127
27	0x3ec75c4e	0.3893761
28	0x3e9d1a1f	0.3068399
29	0x3ee3ab1d	0.44466487
30	0xbe76182d	-0.2403266
31	0x3e467874	0.19381887
32	0xbedc8df7	-0.4307706
33	0xbeed2a55	-0.4632136
34	0xbe8ea3a1	-0.27859214
35	0x3ebad49a	0.36490327
36	0x3e95a18a	0.29224807
37	0x3eea5342	0.45766646
38	0xbe905d24	-0.2819606
39	0x3f01a94c	0.5064895
40	0x3e902be0	0.28158474
41	0x3eae9ba7	0.34103128
42	0x3f42e58a	0.761315
43	0xbf86eac4	-1.0540395
44	0xbf1d09eb	-0.6134326
45	0xbf8cf0fa	-1.101104
46	0xbf0c1ab7	-0.54728264
47	0x3ebc5df0	0.3679042
48	0xbcbda5c2	-0.023150329
49	0x3eba9e71	0.36449006
50	0xbbd8414b	-0.0065995804
51	0xbf3436a6	-0.70395887
52	0xbf6b93e5	-0.92022544
53	0x3c3a8cdf	0.011386125
54	0x3ed57092	0.41687447
55	0x3e99289b	0.29913792
56	0xbd41f707	-0.047354724
57	0xbc323b96	-0.010878464
58	0xbe483881	-0.19552805
59	0x3d62a8d0	0.055336773
60	0x3d35fbc2	0.044429548
61	0x3e85f6af	0.26164767
62	0xbc8a485d	-0.016880209
63	0x3e6aade3	0.22917895
64	0xbd3a6695	-0.045507986
65	0x3ee43a8c	0.44575918
66	0x3fa5bee7	1.2948884
67	0xbf7dffb6	-0.9921831
68	0xbf9e4d62	-1.2367365
69	0xbee21b48	-0.4416144
70	0xbefd0ffd	-0.4942626
71	0x3f1d4427	0.6143212
72	0x3f00c416	0.50299203
73	0xbef23fb7	-0.47314236
74	0x3e406656	0.18789038
75	0x3cf4e303	0.029893404
76	0xbe799aae	-0.24375412
77	0xbec294f3	-0.38004264
78	0xc01dab66	-2.4635863
79	0x3f150688	0.5821309
80	0xbf950517	-1.1642178
81	0xbf9ec6d3	-1.2404426
82	0xbfdc4daf	-1.7211207
83	0xbdd8fdfe	-0.1059532
84	0xbf475a0a	-0.77871764
85	0x403d0ad7	2.9537866
86	0xbfa0e368	-1.2569399
87	0x3fb51aea	1.4148839
88	0xc006c35e	-2.1056743
89	0xc030ea2a	-2.7642922
90	0xc001dc1e	-2.02906
91	0xbeb7ad54	-0.35874426
92	0xc033f036	-2.8115363
93	0x40570185	3.3594677
94	0xc0234b55	-2.551473
95	0x4023c4ab	2.5588787
96	0xbff5d185	-1.9204565
97	0xc010eacb	-2.2643306
98	0xbdaeb3f7	-0.08530419
99	0x3d322b05	0.043498058
100	0xbf6f2997	-0.93422836
101	0x3f9c8d28	1.2230577
102	0xc00ab2de	-2.1671672
103	0x3fca3dbf	1.5800093
104	0xbeb4db5c	-0.35323608
105	0x3f635443	0.8880045
106	0x3edebfc0	0.4350567
107	0xbfd27216	-1.6441066
108	0xbfac3ad0	-1.3455448
109	0x3ed2b0cc	0.4115051
110	0x3f8eedee	1.116636
111	0x40145baf	2.318096
112	0x3e8a8424	0.2705394
113	0x3e831acb	0.2560638
114	0xbf3d828d	-0.7402733
115	0x3e4b4a09	0.19852461
116	0x3db1f774	0.08689776
117	0xbf3c84db	-0.7364022
118	0xbf9b2b86	-1.2122657
119	0xbea847db	-0.3286732
120	0xc0048eff	-2.0712278
121	0xc01352e8	-2.3019352
122	0xbd937186	-0.07199387
123	0x3f693c03	0.91107196
124	0xbf3722f3	-0.71537703
125	0x402ae3d1	2.6701548
126	0xbff0f645	-1.8825155
127	0x3f93ce93	1.1547416
128	0x3db925de	0.09040426
129	0xbdbb5fff	-0.09149169
130	0xbdc9478d	-0.098281
131	0x3f87d97d	1.0613247
132	0x3e1eff8c	0.15527171
133	0x3e1de569	0.15419544
134	0xbeabc075	-0.3354527
135	0xbe009957	-0.12558495
136	0x3f18030d	0.59379655
137	0x3d13240b	0.035923045
138	0xbf11eb49	-0.5699964
139	0xbf18b4ce	-0.59650886
140	0xbf29084a	-0.66028273
141	0xbe8bb135	-0.27283636
142	0x3db32137	0.087465696
143	0x3ed6b2fe	0.41933435
144	0xbeb74835	-0.35797277
145	0xbe3d2688	-0.1847173
146	0xbea78fbc	-0.32726848
147	0xbf69c712	-0.9131938
148	0xbf5fec5c	-0.8747003
149	0x3c769b3c	0.015051659
150	0xbe58d8cb	-0.2117645
151	0x3f22e076	0.6362375
152	0xbdd380ce	-0.10327302
153	0x3e16862e	0.14699623
154	0x3ea3d6b8	0.31999755
155	0xbd836b2f	-0.06416928
156	0x3f4212fa	0.75810206
157	0xbe4fe196	-0.20300898
158	0x3d9aba0a	0.075550154
159	0xbf0574ed	-0.5213154
160	0xbdbbe5ca	-0.09174688
161	0x3e4431c0	0.19159603
162	0x3c8b089d	0.01697188
163	0xbda650cf	-0.08120882
164	0x3e2432c3	0.16034989
165	0xbd017ff2	-0.03161616
166	0x3d4f0658	0.05054316
167	0x3e94e6f9	0.29082468
168	0xbd60b0cd	-0.05485611
169	0x3e362715	0.17788346
170	0xbf5cb114	-0.862077
171	0xbf1bb6d5	-0.60825855
172	0x3f032e1d	0.5124224
173	0x3e4af6f2	0.19820765
174	0x3e161417	0.14656101
175	0xbef61107	-0.48059866
176	0x3ee6c596	0.4507262
177	0x3f19b585	0.600426
178	0x3e16c0cd	0.14721985
179	0xbf222649	-0.6333967
180	0xbe8f9435	-0.2804276
181	0xbda649c4	-0.081195384
182	0x3f022f2a	0.50853217
183	0x3e6687a1	0.22512676
184	0xbe5a05c2	-0.21291259
185	0xbe38c9ef	-0.18045782
186	0x3c00bd36	0.007857611
187	0x3ec6d3a4	0.38833344
188	0xbda8f1c2	-0.08249237
189	0x3e466e8e	0.19378111
190	0xbe7b86fb	-0.2456321
191	0xbe3f3c59	-0.18675365

gru.bias_ih_l0_reverse f4 [24]
0	0x3eae62e9	0.34059837
1	0x3e935818	0.28778148
2	0x3f0944d4	0.5362065
3	0xbb870ff0	-0.004121773
4	0x3d0da835	0.034584243
5	0x3e8af3a5	0.2713901
6	0x3e98f195	0.29871812
7	0x3c97d99a	0.018536378
8	0xbf92ab84	-1.1458592
9	0xbef8f49f	-0.4862413
10	0xc018285a	-2.3774629
11	0x3e82909c	0.25500953
12	0xbff6b941	-1.9275285
13	0xbf540ceb	-0.8283221
14	0xbd514708	-0.05109313
15	0xbfde4d2d	-1.7367302
16	0x3e7eea2f	0.24894021
17	0x3e15ca9a	0.14628068
18	0xbcd50d2a	-0.026007254
19	0x3d47cc2e	0.048778705
20	0x3e5154d6	0.20442519
21	0xbe49e1f6	-0.19715104
22	0x3e44d7d3	0.19222955
23	0xbe69bd82	-0.22826198

gru.bias_hh_l0_reverse f4 [24]
0	0x3eae62e9	0.34059837
1	0x3e935818	0.28778148
2	0x3f0944d4	0.5362065
3	0xbb870ff0	-0.004121773
4	0x3d0da835	0.034584243
5	0x3e8af3a5	0.2713901
6	0x3e98f195	0.29871812
7	0x3c97d99a	0.018536378
8	0xbf92ab84	-1.1458592
9	0xbef8f49f	-0.4862413
10	0xc018285a	-2.3774629
11	0x3e82909c	0.25500953
12	0xbff6b941	-1.9275285
13	0xbf540ceb	-0.8283221
14	0xbd514708	-0.05109313
15	0xbfde4d2d	-1.7367302
16	0x3e7a101d	0.24420209
17	0x3e4bec0a	0.1991426
18	0xbd4a3f8f	-0.04937702
19	0x3e1dce17	0.15410648
20	0x3eb5c3a7	0.35500833
21	0xbe3dd2ee	-0.18537495
22	0x3e6697ad	0.22518797
23	0xbec2dff9	-0.38061503

gru.weight_ih_l1 f4 [24, 16]
0	0x3e2c241a	0.16810647
1	0x3dcdf422	0.1005633
2	0x3f1fbce7	0.6239762
3	0x3ecfc5a8	0.40580487
4	0x3e8d3629	0.27580383
5	0xbe5d2553	-0.2159627
6	0xbe78957b	-0.24275772
7	0x3d4835cb	0.048879426
8	0x3f2fbd35	0.6864808
9	0xbf063db2	-0.5243789
10	0xbc6d3703	-0.014478448
11	0x3df074e9	0.11741049
12	0xc066ec35	-3.608167
13	0xbf1c43a3	-0.61040705
14	0xbf3efe5e	-0.74606884
15	0x3ffda455	1.9815775
16	0xbf600a9b	-0.8751618
17	0x3f0fffd6	0.5624975
18	0xbe58c939	-0.2117051
19	0x3f34e049	0.7065473
20	0x3ece46be	0.40288347
21	0x3cd23ca2	0.025663678
22	0x3f44720a	0.7673651
23	0x3fceb7e8	1.6149874
24	0x3f1b0343	0.6055185
25	0xbdf90791	-0.12159646
26	0xbec79b95	-0.38985887
27	0x3ff0ee3d	1.8822705
28	0x40c67843	6.2021804
29	0xbf3316ac	-0.6995647
30	0x3e42ddb6	0.19029889
31	0xc02e831a	-2.7267518
32	0xbe877071	-0.26452973
33	0x3d3a2b8f	0.045451697
34	0x3f28f26b	0.659949
35	0x400e9d97	2.2283685
36	0x3d3a90b9	0.045548175
37	0xbdef0a8e	-0.11671935
38	0x3e6389f9	0.22220601
39	0x40130b0d	2.2975495
40	0xbeb8ddf8	-0.3610685
41	0x3effff15	0.499993
42	0x400cc187	2.199312
43	0x3f3e04a0	0.7422581
44	0x40b75e6c	5.730276
45	0xc0280b83	-2.6257026
46	0x3f4356ca	0.76304305
47	0xc0981e68	-4.7537117
48	0xbda379e0	-0.0798223
49	0x3f0d653e	0.5523261
50	0x3f84b239	1.0366889
51	0x3fca585d	1.5808216
52	0xbea020a1	-0.31274894
53	0xbf319a68	-0.6937623
54	0x3eb4f526	0.35343283
55	0x3fdbf7a1	1.7184945
56	0x3ecdfdbd	0.4023265
57	0x3eaafd03	0.33396158
58	0xbf2fa6b3	-0.6861374
59	0x400a1664	2.1576166
60	0x40d289b5	6.57931
61	0xbf00f2e1	-0.50370604
62	0xbd97d98f	-0.07414543
63	0xc050a355	-3.259969
64	0x3edf1de5	0.43577495
65	0xbf204900	-0.6261139
66	0x3d4923dd	0.049106468
67	0x3faae8a6	1.3352249
68	0xbe88c2a9	-0.26711014
69	0xbf06947e	-0.5257033
70	0xbf1bb1ba	-0.60818064
71	0xc01272b8	-2.2882519
72	0x3f1ac6db	0.6045968
73	0xbe489b8b	-0.19590585
74	0x3e53869f	0.20656823
75	0x3f1e1775	0.6175454
76	0xbfa4fa83	-1.288895
77	0xbef99139	-0.4874361
78	0xbec96fe9	-0.39343193
79	0x3f907f20	1.1288795
80	0x3d3c50d8	0.045975536
81	0xbf0f80d0	-0.5605593
82	0xbe261e03	-0.16222386
83	0x3fbbf3db	1.4683794
84	0xbea33d46	-0.31882685
85	0x3ddac8f2	0.106828585
86	0xbeb951f4	-0.36195338
87	0xbf536377	-0.82573646
88	0xbe707b26	-0.23484477
89	0xbd0a09f6	-0.033700906
90	0x3e6b8c17	0.23002659
91	0x3eb6f3d3	0.35732898
92	0xbe5ed534	-0.21761018
93	0x3f28f005	0.6599124
94	0x3c49aef7	0.012309781
95	0xbd24c6bc	-0.04022859
96	0x3e846451	0.25857785
97	0xbe5740ee	-0.21020862
98	0x3f06d576	0.52669466
99	0x3e971c52	0.29513794
100	0xbf87e359	-1.0616256
101	0xbf918875	-1.1369768
102	0xbe4b6e5f	-0.19866322
103	0x3f3323b1	0.69976336
104	0x3e005c86	0.12535295
105	0x3e06c758	0.13161981
106	0xbfe7a4c5	-1.8097159
107	0x3f096105	0.53663665
108	0x3ffd8fd2	1.9809515
109	0xbfee7d71	-1.8632032
110	0x3f1cf6b8	0.6131396
111	0xc001fb93	-2.0309799
112	0xbc67245b	-0.014107789
113	0x3ccfb638	0.025355443
114	0x3ec5ce27	0.38633844
115	0x3f8dec40	1.1087723
116	0xbef40b0f	-0.47664687
117	0xbe8e1869	-0.27752998
118	0xbf02587a	-0.50916255
119	0xbcf35b62	-0.02970666
120	0xbd20ff49	-0.03930596
121	0x3d30b184	0.043138042
122	0xbf413d58	-0.7548423
123	0x3d00f6bb	0.0314853
124	0x3f2d1bc1	0.67620474
125	0x402424cf	2.5647466
126	0x3eb10e27	0.3458111
127	0xbee199c6	-0.44062632
128	0xbf9a84b5	-1.2071749
129	0x4002e782	2.04538
130	0x3eac3b18	0.33638835
131	0xbc26ba9f	-0.01017633
132	0x3e8f935c	0.28042114
133	0x3dcd4707	0.10023313
134	0x3f89fa2d	1.0779473
135	0x4004ead6	2.0768332
136	0xbf1ed3e4	-0.6204207
137	0x3ec9422d	0.393083
138	0xbde169e5	-0.11006526
139	0x3f7d4027	0.98926014
140	0x3fb6ffb4	1.4296784
141	0x3e54685b	0.20742933
142	0x3f891cc5	1.0711905
143	0xbfe0a696	-1.7550838
144	0xbf2d671a	-0.67735445
145	0x3f704071	0.9384833
146	0xbefb8952	-0.49128205
147	0x3eafdb66	0.34347075
148	0x3f07cd31	0.5304747
149	0x3edd980a	0.4328006
150	0x3f2e76f2	0.68150246
151	0x400ef874	2.2339144
152	0xbeef73f2	-0.46768147
153	0xbf084dab	-0.5324351
154	0xbff5abc6	-1.9193046
155	0x3fea678d	1.8312851
156	0x3f33f3cb	0.70293874
157	0x3f358183	0.70900744
158	0xbf07dfe5	-0.5307601
159	0xbefd1d2b	-0.49436316
160	0x3e521c23	0.20518546
161	0xbed808c2	-0.42194182
162	0x3d9ba3f2	0.075996295
163	0xc0133940	-2.3003693
164	0x3e766938	0.24063575
165	0x3eca84a3	0.3955432
166	0xbde2dbdb	-0.1107709
167	0xbf6a24c0	-0.91462326
168	0x3d04b9ff	0.032403942
169	0x3d40e88d	0.047096778
170	0xbd071c79	-0.032986138
171	0xbf347823	-0.70495814
172	0xbe73bfdb	-0.23803656
173	0xbddf2c43	-0.10897114
174	0xbcd6bb64	-0.026212402
175	0x3f2f21aa	0.6841074
176	0x3e91675f	0.28399178
177	0xbf15c50a	-0.5850378
178	0xbf2fa10e	-0.68605125
179	0xbda1f1c8	-0.07907444
180	0x3f524338	0.8213382
181	0x3f22ae42	0.63547146
182	0x3d437eac	0.047728226
183	0xc00705bd	-2.1097252
184	0xbd2bbaed	-0.041926313
185	0xbf119c61	-0.5687924
186	0xbee61b60	-0.4494276
187	0xbf5045d4	-0.8135655
188	0xc1251f72	-10.320177
189	0x40262697	2.5961053
190	0xbf3ba3e6	-0.73296964
191	0x40d00116	6.5001326
192	0xbec3cede	-0.38243765
193	0x3f8e4f77	1.1118001
194	0x3ea80a2b	0.32820258
195	0xbf216e68	-0.6305909
196	0x3db5d57c	0.088786095
197	0xbe586dff	-0.2113571
198	0x3ecd1ee5	0.40062633
199	0x3f9726b5	1.1808687
200	0xbe845df4	-0.2585293
201	0xbede7c70	-0.43454313
202	0x3fe4f537	1.7887334
203	0x3f118235	0.56839305
204	0x3f2c2f01	0.6725922
205	0xbeb6d089	-0.35705975
206	0x3e743449	0.2384807
207	0xbeb9e52b	-0.36307654
208	0xbe8192ab	-0.2530721
209	0x3e7e1874	0.24814016
210	0xbef9f6bd	-0.4882106
211	0x3ec77239	0.38954332
212	0x3d93d9ac	0.07219252
213	0x3ea31507	0.3185198
214	0x3ea927bf	0.33038136
215	0xbdc9ff27	-0.098631196
216	0xbf4c9876	-0.79920137
217	0xbee49fa3	-0.44653043
218	0x3f910461	1.1329461
219	0xbfc20ace	-1.5159547
220	0xbfcb20e4	-1.5869412
221	0x3e5c526e	0.2151582
222	0xbefc5df9	-0.49290445
223	0x404dd93e	3.2163844
224	0xbfff53cf	-1.9947451
225	0x4065ab71	3.588589
226	0xbedda121	-0.43286994
227	0xbf780115	-0.9687665
228	0x3f18b8f5	0.5965722
229	0x3f848a87	1.0354775
230	0x3fe7e33e	1.8116224
231	0x400aa878	2.1665325
232	0x3d837d75	0.064204134
233	0x3f5115ba	0.8167378
234	0xbddd9a1f	-0.10820412
235	0x3fdb31df	1.7124594
236	0x3fbcf533	1.4762329
237	0xbfa4df73	-1.2880691
238	0xbda7b09c	-0.081879824
239	0xbfc7cd58	-1.5609541
240	0xbf49f507	-0.7888951
241	0x3ebf8ef6	0.37413758
242	0xbee1d89d	-0.44110575
243	0xbf10d4a1	-0.56574446
244	0x3f7adfe8	0.97997904
245	0x3ed220d5	0.41040674
246	0x3d1f86fd	0.038947094
247	0x3f1241dc	0.57131743
248	0xbe918207	-0.28419515
249	0xbf1a363d	-0.6023901
250	0x40387a5d	2.8824685
251	0xbf28c803	-0.65930194
252	0x3f0e83ae	0.5566968
253	0xbf4bcd76	-0.79610384
254	0xbf25ba2d	-0.64737207
255	0x3eb323cc	0.34988248

gru.weight_hh_l1 f4 [24, 8]
0	0x3e1b51f5	0.15167983
1	0x3f3b8b8f	0.73259825
2	0xbe618ccc	-0.22026366
3	0xbd0b948b	-0.03407721
4	0xbc3e1b6b	-0.011603217
5	0xbe91e87a	-0.28497678
6	0x3da9abe8	0.08284742
7	0xbe456129	-0.19275345
8	0xbf809452	-1.0045264
9	0x3d20d692	0.03926713
10	0xbebc54f8	-0.36783576
11	0xbf1598d9	-0.5843635
12	0xbefbddb4	-0.49192584
13	0xbf331b2c	-0.69963336
14	0xbe94800a	-0.29003936
15	0x3e9694dd	0.2941045
16	0x3fc34dd4	1.5258126
17	0x3efe3b23	0.49654493
18	0xbef161ef	-0.4714503
19	0x3d9f065f	0.07764887
20	0xbfac717f	-1.3472136
21	0xbe276362	-0.16346505
22	0xbf359bb6	-0.7094072
23	0xbf658941	-0.8966256
24	0xbfdc58a5	-1.7214552
25	0x3fd6f08e	1.6792161
26	0xbf3e945b	-0.7444512
27	0x3f947ba8	1.1600237
28	0xbf0e5212	-0.5559398
29	0x3f937d46	1.1522605
30	0x3f7144ee	0.94245803
31	0xbc9f1868	-0.019420817
32	0x3f80aa28	1.0051928
33	0xc01337ad	-2.3002732
34	0x3e99ce2b	0.30040106
35	0xbe5dde17	-0.21666752
36	0xbfcd67e3	-1.6047329
37	0x3e998fd9	0.2999256
38	0x3d98454f	0.074350946
39	0xbe8c5916	-0.27411717
40	0xbf8674e4	-1.0504422
41	0x40a19124	5.0489674
42	0xbef1a55c	-0.47196472
43	0x3e841a44	0.2580129
44	0xbe439f24	-0.19103676
45	0xbeb8fe1c	-0.3613137
46	0x3e9bd677	0.3043706
47	0x3f36427c	0.711952
48	0xbfc50cce	-1.5394533
49	0x404850ec	3.129939
50	0x3f9e158d	1.2350327
51	0x3ff2f6fe	1.8981626
52	0xc02b697a	-2.6783128
53	0xbf0635dc	-0.5242593
54	0x3f1edb8c	0.6205375
55	0x3f764574	0.9619973
56	0x3eefbe6e	0.46824974
57	0x3ea23873	0.31683692
58	0x400d9c82	2.2126775
59	0x3ebf2219	0.37330702
60	0xbf0a2441	-0.5396157
61	0x3f7fa013	0.9985363
62	0xbe745a83	-0.23862652
63	0xbe9370d6	-0.28797024
64	0x3f4f1188	0.80886126
65	0x400a7c91	2.163853
66	0xbfd68d27	-1.6761826
67	0xbe310bee	-0.17289707
68	0xbf9ecef2	-1.2406905
69	0xbf3ab0cd	-0.72926027
70	0xbf784136	-0.96974504
71	0xbf28c037	-0.65918297
72	0xbe4be5fa	-0.19911948
73	0x3e966480	0.2937355
74	0xbf1c6a84	-0.6110003
75	0x3e1482f0	0.14503074
76	0xbf159453	-0.5842945
77	0xbe06080c	-0.13089007
78	0xbf515a61	-0.8177853
79	0xbeef49a5	-0.46735874
80	0xbe3429ae	-0.17594025
81	0xbf494103	-0.78614825
82	0x3f514282	0.8174211
83	0xbfdddceb	-1.7333044
84	0xbfe5e65c	-1.7960925
85	0xbfcfdc8b	-1.6239179
86	0xbf33f8fa	-0.70301783
87	0xbe7b8033	-0.24560623
88	0xbef79d23	-0.48362073
89	0xbf3d3a8d	-0.73917466
90	0xc01c24d2	-2.4397473
91	0xbf35cdc6	-0.7101711
92	0x3f6d9d61	0.92818266
93	0x3d0e87aa	0.034797348
94	0xbf1cf888	-0.6131673
95	0x3f8c8794	1.0978875
96	0xc085f342	-4.1859446
97	0x404aef44	3.1708536
98	0xc0219a32	-2.5250363
99	0xbd2ae54f	-0.041722592
100	0xbfa8562b	-1.3151296
101	0x3cff3e40	0.031157613
102	0xbe3d9f65	-0.18517835
103	0x3fff948e	1.996721
104	0xc03fcf3f	-2.9970243
105	0x3f909b78	1.1297445
106	0xbff9a6fa	-1.9504082
107	0xbf1a483b	-0.60266465
108	0xbfb1d600	-1.3893433
109	0xbd630d7f	-0.055432793
110	0x3e966aca	0.2937835
111	0x3f6fa32f	0.93608373
112	0x3fe604a4	1.7970166
113	0xc02459a0	-2.5679703
114	0x3ea21499	0.3165634
115	0xc0184601	-2.3792727
116	0xbd67db4f	-0.056605633
117	0xbf1ce5c9	-0.61288124
118	0xbf627fd0	-0.88476276
119	0x40506ea3	3.2567527
120	0xbf97a5a3	-1.1847423
121	0xbf3e8f32	-0.7443725
122	0xbf9c125e	-1.2193105
123	0xbf9d9d52	-1.2313635
124	0xbf9498d3	-1.1609138
125	0xbf3e5465	-0.74347526
126	0xbea4fc7e	-0.32223886
127	0xbe8ef4a2	-0.27921015
128	0x3f0eb4bc	0.5574453
129	0xbe86b3ac	-0.26308954
130	0xbda59192	-0.08084406
131	0xbcc13942	-0.023586873
132	0x3f09e4a9	0.5386453
133	0x3e8916dc	0.26775253
134	0x3d2be74f	0.04196864
135	0xbf14d980	-0.5814438
136	0x3f18128a	0.5940329
137	0xbe61ce06	-0.22051248
138	0xbf368531	-0.71296984
139	0xbe20dac5	-0.15708454
140	0x3e892c44	0.26791584
141	0xbd38339f	-0.044971105
142	0xbeedd98d	-0.4645504
143	0x3f28122b	0.6565272
144	0x3fb10ef3	1.3832687
145	0xc00d0f68	-2.2040653
146	0x3e9b71a8	0.3036015
147	0xbe2cf0b8	-0.16888702
148	0x3f0b1ce0	0.54340935
149	0x3f1d2e53	0.6139881
150	0x3e7925b0	0.24330783
151	0xbee1d9ab	-0.4411138
152	0xbf8a5815	-1.080813
153	0x400d3759	2.2065032
154	0xbeb37e22	-0.3505717
155	0xbe8edefe	-0.27904505
156	0xbf018250	-0.50589466
157	0xbecc32d9	-0.39882544
158	0xbded771a	-0.115949824
159	0x3e90da21	0.2829142
160	0xbc08a31a	-0.008339668
161	0x3f175f05	0.59129363
162	0x3da5cc65	0.08095626
163	0x3f334bb3	0.7003738
164	0x3f1628e6	0.58656156
165	0x3f9552de	1.1665914
166	0xbed8e059	-0.42358664
167	0xbf202145	-0.62550765
168	0x3f78ae3e	0.9714087
169	0xbe884dbf	-0.26621816
170	0x3f22aa0c	0.6354072
171	0xbe8cd965	-0.2750961
172	0x3f3db272	0.7410041
173	0xbcb5e3c9	-0.022203343
174	0x3f1bd973	0.60878676
175	0x3f2a9eb7	0.6664843
176	0xbf6724e8	-0.9029069
177	0x3ff9ed5c	1.9525561
178	0xbfb65400	-1.4244385
179	0x3e4639f8	0.19358051
180	0xbf415c60	-0.7553158
181	0xbd1430d0	-0.036179364
182	0xbf120038	-0.57031584
183	0x3ed1fe7b	0.41014466
184	0xbf128cfc	-0.57246375
185	0xbf1a4d81	-0.6027451
186	0xbbb1cbe8	-0.005425919
187	0xbe169b64	-0.14707714
188	0xbdbaa625	-0.09113721
189	0xbf03d0a9	-0.51490265
190	0xbdad4fd3	-0.08462491
191	0xbe92e835	-0.28692785

gru.bias_ih_l1 f4 [24]
0	0x3d478fd3	0.048721146
1	0x3f1654cc	0.5872314
2	0x3e9abd69	0.30222633
3	0x3eaa7263	0.33290395
4	0x3e99be36	0.30027932
5	0xbc14bea6	-0.009078657
6	0x3f3ed971	0.7455054
7	0x3e6b0c0b	0.22953813
8	0xbd214d02	-0.03938008
9	0xbf0d96f8	-0.55308485
10	0xbea274b3	-0.3172966
11	0xbec20087	-0.37891027
12	0xbef2fd61	-0.47458938
13	0xbf347a20	-0.7049885
14	0xbecbc9d7	-0.3980243
15	0xbf14bdb4	-0.58101964
16	0xbd023134	-0.031785205
17	0xbdf74b57	-0.12074917
18	0x3e41b786	0.18917665
19	0x3d5f5999	0.054528806
20	0x3ac918f1	0.0015342516
21	0x3e16f803	0.14743046
22	0xbda347f9	-0.07972712
23	0xbe79cc18	-0.24394262

gru.bias_hh_l1 f4 [24]
0	0x3d478fd3	0.048721146
1	0x3f1654cc	0.5872314
2	0x3e9abd69	0.30222633
3	0x3eaa7263	0.33290395
4	0x3e99be36	0.30027932
5	0xbc14bea6	-0.009078657
6	0x3f3ed971	0.7455054
7	0x3e6b0c0b	0.22953813
8	0xbd214d02	-0.03938008
9	0xbf0d96f8	-0.55308485
10	0xbea274b3	-0.3172966
11	0xbec20087	-0.37891027
12	0xbef2fd61	-0.47458938
13	0xbf347a20	-0.7049885
14	0xbecbc9d7	-0.3980243
15	0xbf14bdb4	-0.58101964
16	0xbd993056	-0.074799225
17	0xbf8c96ab	-1.098348
18	0x3e0447af	0.1291797
19	0x3cb29907	0.021801485
20	0x3db0787d	0.08616731
21	0xbb3202d2	-0.0027162326
22	0xbe3dae0f	-0.1852343
23	0xbe22557d	-0.15852924

gru.weight_ih_l1_reverse f4 [24, 16]
0	0xbfd18fbd	-1.637199
1	0x401a6688	2.412508
2	0x3ed9b5a0	0.4252138
3	0xbf514880	-0.8175125
4	0x3d08fff8	0.033447236
5	0x3ec0b9e9	0.37641838
6	0x3f8fa165	1.1221129
7	0x3fba7240	1.4566116
8	0xbe752da9	-0.23943199
9	0x3db7dc87	0.08977609
10	0xbf5599c8	-0.83437777
11	0x3fd9cf2e	1.7016351
12	0x3f5f9b66	0.87346494
13	0x3e016721	0.12636997
14	0xbf780bf1	-0.9689322
15	0xbf13e0e6	-0.5776504
16	0x3fd45739	1.6589118
17	0xc0680310	-3.625187
18	0xbf066a48	-0.5250592
19	0x3fae2631	1.3605405
20	0xbec2bb32	-0.38033444
21	0xbe869ae4	-0.26290047
22	0xc0387f6e	-2.8827777
23	0xbfcf1e05	-1.6181036
24	0x3f207884	0.6268389
25	0x3f395999	0.7240234
26	0x3dfe5c0f	0.124199025
27	0xbf1a8772	-0.60362923
28	0xbf2d6050	-0.67725086
29	0x3f00e524	0.5034964
30	0x3f34f3be	0.7068442
31	0x3ec7c1a0	0.39014912
32	0xbecc39e3	-0.39887914
33	0x3ed93d87	0.42429754
34	0x3e01850e	0.12648413
35	0x3f413c3d	0.7548254
36	0xbee56144	-0.4480077
37	0xbd9f0c53	-0.077660225
38	0x3ec2e357	0.38064072
39	0x3fa491ae	1.2856958
40	0x3da337fe	0.07969664
41	0xbe4da128	-0.20081007
42	0xbf0a86e6	-0.5411209
43	0x3f52cba7	0.82342
44	0x40c72f3d	6.2245164
45	0xbf1678c1	-0.58778006
46	0x3d58ab23	0.052897584
47	0xc03183e9	-2.7736762
48	0xbea0fd5b	-0.31443295
49	0x3ec468ca	0.38361198
50	0x3ab80b9f	0.0014041549
51	0x3f686357	0.9077658
52	0xbf298930	-0.66224957
53	0xbe442285	-0.19153793
54	0xbe669740	-0.22518635
55	0x3d361785	0.044456024
56	0x3e65c2de	0.22437617
57	0xbf1d1433	-0.61358947
58	0xc02b05c1	-2.6722262
59	0x3f853b22	1.0408671
60	0x3d06b177	0.032884087
61	0x3f2ab77a	0.66686213
62	0x3d53ac56	0.051678024
63	0x3f02eab8	0.511394
64	0x3f7d844d	0.9903
65	0xc01067a1	-2.256325
66	0xbdd42efb	-0.10360523
67	0x3f951e29	1.1649829
68	0xbe572764	-0.2101112
69	0xbe0fe242	-0.14051154
70	0xbf88bb7f	-1.0682219
71	0xbf5468c2	-0.8297235
72	0x3eaeaca0	0.34116077
73	0xbe975711	-0.29558614
74	0xbe5369c4	-0.20645815
75	0xbbb7ade4	-0.005605446
76	0xbf20bbe6	-0.6278671
77	0xbe84efa0	-0.2596407
78	0x3dc22168	0.09479028
79	0x3f0e608a	0.55616057
80	0x3e39641b	0.18104593
81	0xbe266d4a	-0.16252628
82	0x3e2d09a5	0.1689821
83	0x3fe8a321	1.8174783
84	0x3ead73c9	0.338774
85	0xbdc99b9d	-0.09844134
86	0xbd41fe72	-0.0473618
87	0x40190636	2.391004
88	0x3f013b05	0.5048068
89	0xbe709396	-0.234938
90	0xbf9d750d	-1.2301346
91	0x3f3ee679	0.74570423
92	0x3f933928	1.1501818
93	0xbfe96d64	-1.8236508
94	0xbed4b9f8	-0.41548133
95	0xbf086674	-0.5328133
96	0x3fc3f839	1.5310127
97	0xc0ba299a	-5.8175783
98	0xbe893195	-0.2679564
99	0x40c3cc41	6.1186833
100	0xbe64f57b	-0.22359268
101	0xbf5ee054	-0.8706105
102	0xc064caf8	-3.5748882
103	0xbfdad072	-1.7094862
104	0xbeabbec2	-0.33543974
105	0x3f329b9d	0.697687
106	0x4096b28e	4.709296
107	0xc09b28ed	-4.848746
108	0xbf5e88fc	-0.8692777
109	0x3fbf6ac4	1.4954457
110	0x3f554118	0.8330245
111	0x3f0de2e4	0.5542433
112	0x3fc1ebe4	1.5150113
113	0xc0995368	-4.7914314
114	0xbf51930f	-0.8186502
115	0x3eca3640	0.39494514
116	0x3e993d6c	0.29929674
117	0xbee67407	-0.45010397
118	0xbf434b74	-0.7628701
119	0xbfb1bd66	-1.3885925
120	0x3ed85dc7	0.42259046
121	0x3ee0bb80	0.4389305
122	0x3e6c63fe	0.23085019
123	0xbfef7248	-1.8706751
124	0xbf5e6b97	-0.8688292
125	0xbf2cd09c	-0.6750581
126	0x3dbedc6e	0.093193874
127	0x3f2d7a43	0.6776468
128	0x3f8484f0	1.0353069
129	0xbfc67ffa	-1.5507805
130	0xbf819fc9	-1.0126888
131	0xc0437a23	-3.0543296
132	0x3ef80815	0.48443666
133	0x3f04ce03	0.5187685
134	0xbf46f4cb	-0.77717274
135	0xbfe3ee66	-1.7807128
136	0xbd9cae6c	-0.07650456
137	0x3e90f6df	0.28313348
138	0x3f863677	1.0485371
139	0xbff9197d	-1.9460903
140	0xc00ae3a7	-2.1701448
141	0x3fd8240e	1.6886003
142	0x3de1eaec	0.11031136
143	0x40151217	2.329229
144	0xbf80b31c	-1.005466
145	0x3fa32e76	1.2748554
146	0xbfa9073d	-1.3205334
147	0x3f177303	0.5915987
148	0x3ec2da62	0.38057238
149	0x3fa6cbaa	1.3030903
150	0x3fb1a8eb	1.3879675
151	0xbf9e8b41	-1.2386247
152	0xbf45c660	-0.7725582
153	0xbfcec40b	-1.6153578
154	0xbfee70dd	-1.8628193
155	0x3f3f526b	0.74735135
156	0xc025cceb	-2.5906322
157	0x40083529	2.1282446
158	0xbf336d76	-0.700889
159	0x402ed8c4	2.7319803
160	0xc00b4715	-2.1762135
161	0x40552d10	3.3308754
162	0x3fedacc9	1.8568355
163	0xbf809fdc	-1.0048785
164	0xbf93436f	-1.1504954
165	0xbef16a67	-0.4715149
166	0x3f9b47c4	1.2131276
167	0x40b36bcb	5.6069083
168	0x3ec6dad5	0.3883883
169	0xbea84d53	-0.32871494
170	0x3ea4fe96	0.32225484
171	0x4070c210	3.7618446
172	0x40745594	3.8177233
173	0xbee1c98a	-0.44099075
174	0xbe0f1f12	-0.13976696
175	0xbff7fc0b	-1.9373792
176	0x3f1ba490	0.6079798
177	0xbeedf214	-0.46473753
178	0x3eb3cbee	0.35116524
179	0xbfd97c72	-1.6991103
180	0x3ed4c9cd	0.41560212
181	0x3b07ab9d	0.0020701655
182	0x3d8cd3f3	0.068763636
183	0x3facf385	1.3511816
184	0x3f53a6b9	0.82676274
185	0xbf3f2d29	-0.74678284
186	0xc08eb82f	-4.4599833
187	0x40d3390a	6.600713
188	0x3fb086b5	1.3791109
189	0x3fb13469	1.3844119
190	0xbf2cb726	-0.6746696
191	0xbf4f2c72	-0.80927193
192	0xbf580493	-0.8438198
193	0x3fe2e3c2	1.7725756
194	0xbf9022d4	-1.1260629
195	0x3d4a9b0a	0.049464263
196	0x3f6b9f35	0.92039806
197	0x3fd5d9c3	1.6707081
198	0x3fdd2901	1.7278138
199	0x3e288ba0	0.16459513
200	0xbf8761a8	-1.0576677
201	0xc008c02f	-2.13673
202	0x3ee209ab	0.44148
203	0x3e1e99d5	0.1548837
204	0xbf2cfa24	-0.67569184
205	0x3fafcd7b	1.3734583
206	0xbf8f3a97	-1.1189755
207	0x3fb014af	1.3756312
208	0x3c213b23	0.009840759
209	0xbe722363	-0.23646311
210	0x3f14665e	0.579687
211	0xbf5445f6	-0.8291925
212	0x3e2ad1ca	0.1668159
213	0x3e15c22b	0.1462485
214	0x3dcc609c	0.09979364
215	0x3e1c2ddd	0.1525187
216	0xbe9bccd6	-0.30429715
217	0xbd8f0e6e	-0.06985174
218	0x4008d436	2.1379523
219	0xbf48a775	-0.7838052
220	0x3e0e13f7	0.13874803
221	0xbec6ff19	-0.388665
222	0xbd8aea3c	-0.06782958
223	0x3ebd03d1	0.36916974
224	0x3f8db9a3	1.1072277
225	0xbf6938e2	-0.9110242
226	0x3f472329	0.77788025
227	0x3f6e3e2d	0.9306362
228	0xbf2c9e25	-0.6742881
229	0xbe7f51eb	-0.24933593
230	0xbf82cb46	-1.0218284
231	0xbfffd9b1	-1.9988309
232	0xbfb5d463	-1.420544
233	0xbc9d19b3	-0.019177293
234	0xbc112fb4	-0.008861471
235	0xbedb395c	-0.428172
236	0xc04dbf28	-3.2147923
237	0x40399ac1	2.9000704
238	0x3f01845d	0.50592595
239	0x4025caac	2.590495
240	0xbff39d16	-1.9032314
241	0x3fc54170	1.5410595
242	0xbfb1cf27	-1.3891343
243	0x3f7361a8	0.95070887
244	0x3f281565	0.65657645
245	0x3f9b9a40	1.2156448
246	0x3f18fd99	0.5976196
247	0x3eb63dd8	0.35594058
248	0xbf80270a	-1.0011914
249	0xc00e2469	-2.2209723
250	0xbecb24a7	-0.396764
251	0x3f6bb35f	0.92070574
252	0xbf45c7ae	-0.7725781
253	0x4003e08f	2.060581
254	0xbf8b49d2	-1.0881903
255	0x3fc56177	1.5420369

gru.weight_hh_l1_reverse f4 [24, 8]
0	0xbf0c2216	-0.5473951
1	0xbec65261	-0.38734725
2	0x3e926a08	0.2859652
3	0x3ec68d6d	0.38779774
4	0xbf2026ce	-0.6255921
5	0xbf6b0d5c	-0.9181726
6	0xbe0f8ea3	-0.14019255
7	0xbf0b0ba5	-0.54314643
8	0xbe580842	-0.210969
9	0xbe610697	-0.2197517
10	0x3fb27fed	1.394529
11	0xbf021bce	-0.50823677
12	0x3e342ef5	0.17596038
13	0x3fd5d390	1.6705189
14	0xbd588df1	-0.05286974
15	0xbcc30e34	-0.023810484
16	0x3de9e884	0.11421302
17	0xbeb12efc	-0.3460616
18	0x3d446a93	0.0479532
19	0xbe8c8e89	-0.27452496
20	0x3e0f363c	0.13985533
21	0xbf24d6d6	-0.64390314
22	0x3dae5cac	0.085137695
23	0xbe73decd	-0.2381546
24	0xbf299069	-0.6623598
25	0xbde066b0	-0.10957086
26	0x409f0707	4.969608
27	0x3f1f40b7	0.6220812
28	0x3e90794e	0.28217548
29	0xbdc55c2e	-0.096367225
30	0xbea3f866	-0.3202545
31	0xbde6e20c	-0.11273584
32	0x3f1d61e2	0.6147748
33	0x3e7dbf83	0.24780087
34	0x3fd159e0	1.6355553
35	0xbe13cfc7	-0.1443473
36	0x3daf159b	0.08549043
37	0x3daaf802	0.08348085
38	0xbe978e2d	-0.2960066
39	0xbee918eb	-0.45526823
40	0xbd4c4266	-0.04986801
41	0x3ed30f6a	0.41222697
42	0x3f9307b1	1.1486722
43	0x3ff9bc32	1.9510558
44	0xbb2de6bd	-0.0026535236
45	0x3fb865e7	1.4406098
46	0x3f1403f2	0.5781852
47	0xbe86c1a8	-0.26319623
48	0x3de4c340	0.111700535
49	0xbd5d9c00	-0.05410385
50	0xc10954e8	-8.583229
51	0xbe49633a	-0.19666758
52	0x3ed35ad6	0.4128024
53	0x3ff1d3e5	1.889279
54	0x3ea5c8d8	0.32379794
55	0xbe93a49f	-0.28836533
56	0xbed76705	-0.42070785
57	0xbc0476d9	-0.008084976
58	0xbfa438a7	-1.2829789
59	0x3ef878bf	0.48529622
60	0xbe2665ae	-0.16249725
61	0x3edf17d8	0.4357288
62	0xbf5bd356	-0.8586935
63	0xbeec879b	-0.4619721
64	0xbfecc972	-1.8498976
65	0xbfbd4963	-1.4788021
66	0xc0495a19	-3.1461241
67	0x3fda332a	1.7046864
68	0xbe925335	-0.28579107
69	0xbe81e135	-0.25367132
70	0x3cb5bc49	0.022184508
71	0xbf27a73a	-0.6548954
72	0x3f566c99	0.83759457
73	0xc0087ca2	-2.132607
74	0x4091a400	4.5512695
75	0x3fa6d770	1.3034496
76	0xc0041d58	-2.064291
77	0x3f97e651	1.1867162
78	0xbe741b23	-0.23838477
79	0xbfeb6037	-1.8388737
80	0xbdd9fc2c	-0.10643801
81	0xbe82fc15	-0.25582948
82	0xbdc5e69f	-0.09663128
83	0x3f4f6cd1	0.81025416
84	0xbe994f50	-0.29943323
85	0xbee5bef6	-0.44872254
86	0xbf23c3aa	-0.63970435
87	0x3e7a62de	0.24451777
88	0xbe043a70	-0.12912917
89	0xbf5aa7b0	-0.8541212
90	0x411fd70e	9.990004
91	0x3f32570e	0.69664085
92	0xbff6e96d	-1.9289986
93	0xbfe438a8	-1.782979
94	0xbfc4e1f6	-1.5381458
95	0xbfaa55fe	-1.3307493
96	0xbee5eb2d	-0.44905987
97	0x3f7db7ae	0.991084
98	0x3fc01ab7	1.5008153
99	0xbea752e7	-0.32680437
100	0x3ee0ce76	0.43907517
101	0xbf71078b	-0.94152135
102	0xbf194d75	-0.59883815
103	0x3f7fc531	0.99910265
104	0x400e1ef8	2.2206402
105	0x3fd263b3	1.6436676
106	0x3fd1b920	1.6384621
107	0xbf8c2483	-1.0948642
108	0x3f841247	1.0318078
109	0x3ec0144e	0.3751549
110	0x3fd3679f	1.6515998
111	0x3f8e1fc9	1.110345
112	0xbea11798	-0.31463313
113	0xbf1ae4d2	-0.605054
114	0xc01bcde3	-2.4344413
115	0xbd0f0303	-0.03491498
116	0xbf4a277d	-0.78966504
117	0x3f43e6dc	0.7652414
118	0x3fe24a63	1.7678951
119	0xbf0f5f05	-0.56004363
120	0x3f46d38c	0.77666545
121	0x3f98981c	1.192142
122	0xbe33864a	-0.17531696
123	0xbebb4589	-0.3657649
124	0x3f819f1c	1.0126681
125	0x3f9447e8	1.1584444
126	0x40037117	2.0537775
127	0x3faaecbb	1.3353494
128	0xbd96c1a5	-0.073611535
129	0xbeea5ab3	-0.45772323
130	0x3f70421a	0.9385086
131	0xbc403626	-0.01173166
132	0xbe822b3c	-0.2542361
133	0x3d66484c	0.05622129
134	0xbed6e48e	-0.41971248
135	0xbe5a0805	-0.21292122
136	0x3f39287e	0.7232741
137	0x3f0bba0b	0.54580754
138	0xbf96efee	-1.1791971
139	0x3ecba156	0.39771527
140	0x3eca7334	0.39541018
141	0x3eca675b	0.3953198
142	0xbe054bbb	-0.1301717
143	0x3e487bdd	0.195785
144	0x3ec5247a	0.38504392
145	0xbe8af66c	-0.2714113
146	0xbe047a4c	-0.12937278
147	0x3e4d35c8	0.20040047
148	0x3ed8074f	0.42193076
149	0x3cdf0865	0.027225683
150	0xbda20efb	-0.079130135
151	0x3ded3e6d	0.115841724
152	0xbe1eacb4	-0.15495569
153	0x3f32111a	0.69557345
154	0x40553331	3.3312495
155	0xbeb585c4	-0.35453618
156	0x3e8d199d	0.27558604
157	0x3f3c200e	0.7348641
158	0xbeae6bb5	-0.3406655
159	0x3f29ee21	0.6637898
160	0xbe5c9521	-0.21541263
161	0xbd097080	-0.033554554
162	0xbf86dd8e	-1.0536363
163	0xbe02e3a0	-0.12782145
164	0x3e9aeb86	0.30257815
165	0x3f58379e	0.84459865
166	0x3e28244c	0.16420096
167	0xbd91fde9	-0.07128508
168	0x3da32ffc	0.07968137
169	0xbf82307b	-1.0171045
170	0x3f901b16	1.1258266
171	0x3dc6a27c	0.0969896
172	0xbeb101fb	-0.34571823
173	0xbf1f2d46	-0.62178457
174	0x3d34828b	0.044069808
175	0x3eaa2da7	0.33237955
176	0xbf23238e	-0.6372613
177	0x3da81dcf	0.082088105
178	0x40b3797e	5.6085806
179	0xbe0c527c	-0.1370334
180	0x3e428607	0.1899644
181	0x3e784e79	0.24248685
182	0xbd7380c1	-0.05944896
183	0x3e1ef2ef	0.1552236
184	0x3f1421b1	0.5786391
185	0x3f232c59	0.63739544
186	0xbfb10327	-1.3829087
187	0x3e3a3b63	0.18186717
188	0x3ee1e733	0.44121704
189	0x3e22ddfa	0.1590499
190	0xbfb36d3b	-1.401771
191	0x3e6c7066	0.23089752

gru.bias_ih_l1_reverse f4 [24]
0	0xbee55d8e	-0.4479794
1	0x3ef19150	0.47181177
2	0x3c1e003f	0.009643613
3	0x3d434fd5	0.047683556
4	0x3ec4ed17	0.38462135
5	0x3e527e2d	0.20555945
6	0x3f2fa80a	0.6861578
7	0x3f0f8d36	0.56074846
8	0xbe19482c	-0.14968938
9	0xbf165e9f	-0.5873813
10	0x3f23a787	0.639275
11	0x3daf2acb	0.08553084
12	0xbf627809	-0.8846441
13	0xbe366666	-0.178125
14	0xbe60e97f	-0.21964072
15	0xbf34d4d2	-0.7063724
16	0x3ebab332	0.3646484
17	0x3e5c4ffc	0.21514887
18	0x3d95dc02	0.07317354
19	0xbe27d7dc	-0.16390938
20	0x3e94cfd7	0.2906482
21	0xbd123a6b	-0.035700243
22	0x3e0f79db	0.14011328
23	0x3dfab207	0.12240987

gru.bias_hh_l1_reverse f4 [24]
0	0xbee55d8e	-0.4479794
1	0x3ef19150	0.47181177
2	0x3c1e003f	0.009643613
3	0x3d434fd5	0.047683556
4	0x3ec4ed17	0.38462135
5	0x3e527e2d	0.20555945
6	0x3f2fa80a	0.6861578
7	0x3f0f8d36	0.56074846
8	0xbe19482c	-0.14968938
9	0xbf165e9f	-0.5873813
10	0x3f23a787	0.639275
11	0x3daf2acb	0.08553084
12	0xbf627809	-0.8846441
13	0xbe366666	-0.178125
14	0xbe60e97f	-0.21964072
15	0xbf34d4d2	-0.7063724
16	0xbe4ce80a	-0.20010391
17	0x3f44c315	0.7686017
18	0x3ebc39ab	0.36762747
19	0x3e8aea3a	0.27131826
20	0x3f017c82	0.5058061
21	0xbe39d63d	-0.18148132
22	0x3ee308bc	0.443426
23	0x3f84bf4c	1.0370879

fc.weight f4 [3, 16]
0	0xc0817e77	-4.0466876
1	0xbf8c216d	-1.0947701
2	0xc0022781	-2.0336611
3	0x3f9ff952	1.2497962
4	0xc04484e2	-3.0706105
5	0xbfbfca98	-1.4983702
6	0x3fdcded9	1.7255508
7	0xc0c03a08	-6.007084
8	0x3f2a39b3	0.6649429
9	0x3f154af2	0.5831748
10	0xc0082289	-2.1271079
11	0xc054c8ef	-3.324764
12	0x3ebb156a	0.36539775
13	0xbe24bdf2	-0.16088083
14	0xc0093f74	-2.1444979
15	0x3fa87d08	1.3163157
16	0x403b0d14	2.9226732
17	0x4027dd36	2.6228766
18	0x3fe87415	1.8160425
19	0xbef40308	-0.47658563
20	0x402a117a	2.6573167
21	0x400c389c	2.1909552
22	0xbf97c731	-1.1857663
23	0x409df9ff	4.936767
24	0x3ee15509	0.4401019
25	0x3ed06631	0.40702966
26	0x3f9b558d	1.2135483
27	0x401a8369	2.4142706
28	0x3e2bb31c	0.16767544
29	0x3f46fc43	0.7772867
30	0x402c6a53	2.6939895
31	0xbe77af61	-0.24187995
32	0x408b6193	4.355661
33	0xbfc0273e	-1.5011976
34	0x40326067	2.787134
35	0xbe4206e6	-0.18947944
36	0x40812195	4.0353494
37	0xc100bf15	-8.046651
38	0x3d571829	0.052513275
39	0xbf814f8a	-1.0102398
40	0xc1023369	-8.137551
41	0xc0b44ff9	-5.6347623
42	0x4069dd1a	3.65412
43	0x40525df8	3.2869854
44	0xc100c741	-8.048646
45	0xc060bd2f	-3.5115469
46	0xc10f190f	-8.943618
47	0xc11d09b5	-9.81487

fc.bias f4 [3]
0	0x3f452729	0.7701288
1	0xbf26bead	-0.651347
2	0x3f2c338e	0.67266166
