assets/model/punctuation_normalize/state_dict_20240218211723.pt (torch, 40514 bytes, 32 tensors)

fa.weight f4 [8, 1]
0	0xb9c6596c	-0.00037832127
1	0xbaef7da9	-0.0018271703
2	0xb9832574	-0.00025014172
3	0xbba46622	-0.005017058
4	0xb9fdbe07	-0.00048397502
5	0xba0548d3	-0.0005084399
6	0xba932398	-0.0011225818
7	0xba4d22a8	-0.00078252936

fa.bias f4 [8]
0	0x3e2d7e1e	0.16942641
1	0x3e2d3347	0.16914092
2	0x3e2d2870	0.16909957
3	0x3e2d4872	0.16922167
4	0x3e2cec71	0.1688707
5	0x3e2d260b	0.16909043
6	0x3e2d29bf	0.16910456
7	0x3e2d0c13	0.16899137

conv_2.weight f4 [8, 1, 2]
0	0xbe301674	-0.17196065
1	0xbee6a423	-0.450471
2	0x3d89855d	0.0671489
3	0x3cc460c4	0.023971923
4	0xbe3d4391	-0.18482806
5	0xbb9c18e6	-0.0047637103
6	0xbd351ab4	-0.04421492
7	0x3f0e5fea	0.55615103
8	0x3f206a65	0.62662345
9	0xbe9a6fb9	-0.30163363
10	0xbfbc01c7	-1.4688042
11	0x3c59f464	0.013302896
12	0xbe181d00	-0.14854813
13	0xbddb4a63	-0.107075475
14	0xbdf3b27b	-0.11899277
15	0xbc4d3742	-0.0125253815

conv_2.bias f4 [8]
0	0x00000000	0.0
1	0x3e027b47	0.12742339
2	0x00000000	0.0
3	0xbce513a1	-0.027963461
4	0xbd1352d2	-0.035967655
5	0x3e6bf7ce	0.23043749
6	0xbcdc9120	-0.02692467
7	0x3e02d80f	0.12777732

conv_3.weight f4 [8, 1, 3]
0	0xb8973bb3	-7.211361e-05
1	0x3f32a887	0.697884
2	0x3ce85303	0.028359896
3	0x3d2ccd82	0.042188175
4	0xbe081519	-0.13289298
5	0xbcca8b08	-0.024724498
6	0xbdbb17e5	-0.09135417
7	0x3f12441a	0.57135165
8	0x3e2020bc	0.15637487
9	0x3c9dcfe8	0.019264176
10	0xbe17b418	-0.14814794
11	0xbecd9bf9	-0.4015806
12	0x3c177d30	0.009246156
13	0xbf28a14b	-0.65871114
14	0xbb089429	-0.0020840263
15	0xbe13e9ee	-0.14444706
16	0xc0c0f745	-6.0301843
17	0x3eaf7f49	0.34276798
18	0xbe8a034c	-0.2695564
19	0xbd885cd9	-0.06658334
20	0xbec3cc22	-0.38241678
21	0xbcf8f709	-0.030391233
22	0x3f1ab9a5	0.6043952
23	0x3c49f431	0.012326286

conv_3.bias f4 [8]
0	0xbdc83b55	-0.09776942
1	0x3e418b2d	0.18900748
2	0xbe6eab0e	-0.2330744
3	0x00000000	0.0
4	0x3e8d8c49	0.27646092
5	0xbc61e254	-0.013786871
6	0xbc018e0f	-0.007907405
7	0xbd603186	-0.05473473

conv_4.weight f4 [8, 1, 4]
0	0xbc28db67	-0.010306216
1	0xbe231b2b	-0.15928333
2	0xbd447832	-0.04796619
3	0xbdf2238b	-0.118231855
4	0x3cd39dbf	0.025832055
5	0x3e7d4113	0.24731855
6	0x3e8634e2	0.2621222
7	0x3ac60e8e	0.0015110539
8	0x3f2fdd64	0.6869719
9	0xbeeae504	-0.4587785
10	0xbea88e41	-0.3292103
11	0x3b530fa9	0.003220538
12	0xbd94463b	-0.07239958
13	0xbd1509be	-0.036386244
14	0x3ce7dce4	0.028303571
15	0xbc514fed	-0.012775403
16	0x399fa0a1	0.0003044652
17	0x3cbc4f8d	0.022987152
18	0x3cf3ee29	0.02977665
19	0x39ce88de	0.00039393356
20	0x3d09de6f	0.033659395
21	0x3f664bd7	0.8995947
22	0x3ca83c5d	0.020536596
23	0x3a5c8783	0.0008412527
24	0x3eb58f25	0.35460773
25	0xbe0a0846	-0.13479719
26	0xbd9ffe21	-0.07812143
27	0xbdf4416e	-0.11926542
28	0xbd2f6da7	-0.042829182
29	0xbde949a8	-0.11391002
30	0xbe2351ff	-0.15949248
31	0xbe138757	-0.14407097

conv_4.bias f4 [8]
0	0x00000000	0.0
1	0x3d4d8700	0.050177574
2	0xba925173	-0.001116319
3	0x3e371131	0.17877652
4	0x3e23654f	0.15956615
5	0xbe7d1b5c	-0.24717468
6	0x3d407982	0.04699088
7	0x00000000	0.0

layer_norm_1.weight f4 [8]
0	0x40202200	2.5020752
1	0x400f18da	2.2358918
2	0x3fda09e6	1.7034271
3	0x3fdd304d	1.7280365
4	0x3f909f7d	1.1298672
5	0x3f9ce2d3	1.2256721
6	0x3f0e4b17	0.5558333
7	0x3f84369f	1.0329169

layer_norm_1.bias f4 [8]
0	0x3e16ae1c	0.14714855
1	0x3e027e50	0.12743497
2	0xbef05238	-0.46937728
3	0xbf83c499	-1.0294372
4	0xbe400c2c	-0.18754643
5	0xbf717649	-0.94321114
6	0xbf08f9c8	-0.53506136
7	0xbe12cd70	-0.1433618

gru_1.weight_ih_l0 f4 [48, 8]
0	0xbfe5eff6	-1.7963855
1	0xc0104549	-2.2542288
2	0x3e22e1bd	0.15906425
3	0xc07cf8a4	-3.9526758
4	0xbfcd8310	-1.6055622
5	0x3f667a37	0.90030235
6	0xbf0f2b06	-0.55925024
7	0xbfdace1c	-1.709415
8	0x3ffc980c	1.9733901
9	0x3f6cd154	0.9250691
10	0xbfffd7ba	-1.998771
11	0x3d9ad7f2	0.075607195
12	0x3f3d5440	0.7395668
13	0xbe9c1007	-0.30480978
14	0xbf801580	-1.0006561
15	0xbfd516cd	-1.6647583
16	0x3fed8be9	1.8558322
17	0x400328e5	2.049371
18	0xbf86bd74	-1.0526567
19	0xbf395417	-0.72393936
20	0x3f2ebadf	0.6825389
21	0x3ed29141	0.41126445
22	0xbd8c636d	-0.068549015
23	0x3ecc357c	0.39884555
24	0xbd97aca9	-0.07405979
25	0xbf430af6	-0.761886
26	0xbfda8dd0	-1.7074528
27	0xbcc98101	-0.024597647
28	0x3f341c60	0.70355797
29	0xbe42041b	-0.18946879
30	0x3ec03489	0.3754008
31	0xbf019f63	-0.5063383
32	0x3f4a2ba8	0.78972864
33	0x3f312a2f	0.6920499
34	0xbf7e6988	-0.9937978
35	0x40dadf7f	6.839782
36	0x3fdc44fa	1.720855
37	0x3f8e0d7f	1.1097869
38	0xbfdc397e	-1.7205045
39	0xbf821d61	-1.0165216
40	0x3f0cac2b	0.5495021
41	0x3eaad04a	0.33362037
42	0x3f8cefd5	1.1010691
43	0xbeb54e94	-0.35411513
44	0xbf98af06	-1.1928413
45	0x40882b8f	4.255317
46	0x3f5db1cf	0.8659944
47	0x3f33ce80	0.7023697
48	0x402bcb28	2.6842747
49	0x4024a626	2.572641
50	0x3e752316	0.23939165
51	0x3f83df5f	1.0302542
52	0xbf2c1c90	-0.6723108
53	0xbf7d9b4b	-0.99065083
54	0x3f2612c0	0.6487236
55	0x401bd324	2.434762
56	0x3fc4af1d	1.536594
57	0x3fb4ba55	1.4119364
58	0x3e83aa78	0.25715995
59	0xbf122e9b	-0.57102364
60	0x3f8140ba	1.0097878
61	0xbd93643a	-0.07196851
62	0x3e8c4270	0.27394438
63	0xbf7af9cf	-0.9803743
64	0xbc8d3ad1	-0.01723996
65	0xbffc935b	-1.9732469
66	0x3da3186b	0.07963642
67	0xc086724e	-4.201453
68	0xbeb31b04	-0.3498155
69	0xbd624a77	-0.055246796
70	0x3eb36e1e	0.3504495
71	0xc00a1684	-2.1576242
72	0x3f671dc3	0.9027979
73	0x3f229257	0.63504547
74	0x3f2d9af5	0.6781457
75	0x3e343db0	0.17601657
76	0xc01e61d3	-2.4747207
77	0xbaba10e8	-0.0014195712
78	0xbf440e04	-0.76583886
79	0xbf876784	-1.0578465
80	0xbfacaee6	-1.3490875
81	0xbfc8c903	-1.5686344
82	0xbf9a4e67	-1.2055176
83	0xbefeb72d	-0.49749127
84	0xc0272482	-2.6116033
85	0xc0360dde	-2.8445964
86	0xc010116c	-2.2510633
87	0xc00cb04a	-2.1982598
88	0x3f783003	0.9694826
89	0x3fcd920d	1.6060196
90	0x40aa3167	5.3185306
91	0xc02ca5d5	-2.6976216
92	0x3fbe4539	1.4864875
93	0x404f7645	3.2415936
94	0x3f9a3d25	1.204991
95	0x401fc596	2.4964347
96	0xbf1a9c87	-0.6039509
97	0xbee86b29	-0.45394257
98	0x3d9b3006	0.07577519
99	0xbe06c26b	-0.13160102
100	0xbe18c90a	-0.1492044
101	0x3dfb204b	0.12262019
102	0x3f766044	0.9624064
103	0x3fd39d58	1.6532393
104	0xbeaa72c9	-0.332907
105	0xbf21e50c	-0.6324012
106	0x3f4d538e	0.8020562
107	0xbfb161db	-1.3857988
108	0x3db6e89f	0.08931088
109	0xbdda9f1e	-0.106748804
110	0x3fc61490	1.5475025
111	0xbe9e2ea2	-0.30894953
112	0xbe34c2f6	-0.17652497
113	0x3cf8aeb8	0.03035675
114	0xbf960d99	-1.17229
115	0x3f2d0622	0.6758748
116	0x3f21dd6b	0.6322848
117	0x3fb9b4d1	1.4508306
118	0xbf12c4f7	-0.57331795
119	0x3dae19d9	0.08501024
120	0x3f48b44d	0.7840012
121	0x3f5907d9	0.847776
122	0xb9bc1494	-0.00035873486
123	0x3ec3b114	0.38221037
124	0xbe6ccb7c	-0.23124498
125	0xbf614eff	-0.88011163
126	0x3f09ea87	0.53873485
127	0x3f832e71	1.0248548
128	0x3f0b7006	0.5446781
129	0x3f98de0e	1.1942766
130	0xbf769842	-0.96326077
131	0x3f1d8d34	0.61543584
132	0x3fdb44cf	1.7130374
133	0xbe79b860	-0.2438674
134	0x3e1b427f	0.15162085
135	0xbf0a7bbe	-0.54095066
136	0x3e00140d	0.12507649
137	0xbf8c710a	-1.0971997
138	0x3f5b0ced	0.855666
139	0xbf5b8145	-0.85744125
140	0xbead480f	-0.3384404
141	0xc09e820c	-4.953375
142	0x3f245a47	0.6420025
143	0x4017d2bb	2.372237
144	0x3e9bcbf6	0.30429047
145	0x3ee7771e	0.45208067
146	0x3f5e299f	0.8678226
147	0xbeb5e2f0	-0.35524702
148	0xbd31b2e1	-0.043383483
149	0x3e671837	0.22567831
150	0x3f4eab67	0.8073029
151	0x3f9e0147	1.234414
152	0xbecd5bbc	-0.4010905
153	0xbea026fb	-0.3127974
154	0xbdedcdaa	-0.11611493
155	0xbd2fe037	-0.042938437
156	0x3e561fb0	0.20910525
157	0xbf3c02f2	-0.73441994
158	0x3eb3fa47	0.35151884
159	0x3f6a8228	0.9160485
160	0xbf2fae2c	-0.6862514
161	0xbf597318	-0.84941244
162	0xbfe7630f	-1.8077105
163	0x3d18ca29	0.03730217
164	0x3f0ef965	0.55849296
165	0x3f143911	0.57899576
166	0x3e980706	0.29692858
167	0xbf2dfae6	-0.67960966
168	0xbbed6a01	-0.0072453027
169	0xbed8cd7d	-0.42344275
170	0x3e183805	0.1486512
171	0xbe9fcd8d	-0.3121151
172	0xbe075369	-0.13215412
173	0x3ec7729a	0.38954622
174	0xbf3d490a	-0.73939574
175	0xbf30fc43	-0.6913492
176	0xbb61677f	-0.0034393964
177	0xbe5db9af	-0.21652864
178	0xbf8a26e9	-1.0793124
179	0xbf8de3a1	-1.1085092
180	0xbfc75c85	-1.557511
181	0x3ec28d20	0.37998295
182	0xbe3aa3bf	-0.18226527
183	0xbf762c64	-0.96161485
184	0x3e94b8c1	0.29047206
185	0x3ee56a6c	0.44807756
186	0x3fa92db8	1.3217077
187	0xbfb8dbc2	-1.4442065
188	0xbe925f82	-0.28588492
189	0xbf8f47e5	-1.1193815
190	0xbec60c8f	-0.38681456
191	0x3da1dd60	0.07903552
192	0xbfa29998	-1.2703123
193	0xbfc9443b	-1.5723947
194	0xbef022e9	-0.46901634
195	0xbe116b91	-0.1420119
196	0x3fea2410	1.8292255
197	0x3da41db0	0.08013475
198	0xbdb0bfd2	-0.08630337
199	0xc08d32ac	-4.4124355
200	0x3f2d83ea	0.6777941
201	0x3ecfe77a	0.4060629
202	0x3ce70d09	0.028204458
203	0xbe690480	-0.22755623
204	0xbf9710dd	-1.1802021
205	0xbf78451e	-0.96980464
206	0x405ddac6	3.4664779
207	0x3fc632c9	1.5484248
208	0x3e86153e	0.26188082
209	0x3ed1beae	0.4096579
210	0x3ffeeab6	1.9915378
211	0x3fa44494	1.2833428
212	0xbee09d2a	-0.43869907
213	0xbe74608a	-0.23864952
214	0x3e99ad78	0.3001516
215	0xbed1367a	-0.40861875
216	0x3f4e405d	0.8056696
217	0x3f4b88f2	0.79505837
218	0xbfa20af7	-1.2659596
219	0x3e8d75ae	0.27628845
220	0xbe940859	-0.2891262
221	0x3e891eea	0.26781398
222	0x401fa98e	2.4947238
223	0xbe98c840	-0.2984028
224	0x3f87f3f5	1.0621325
225	0x3f86ab48	1.0521021
226	0x3fd8c11c	1.6933932
227	0xbe9403b9	-0.2890909
228	0xc002dac8	-2.0446033
229	0x3f3c196e	0.734763
230	0x3f1ba2f5	0.6079553
231	0x3d688d2e	0.056775264
232	0x3d676bcb	0.056499284
233	0x3ee5bf06	0.44872302
234	0xbfac315f	-1.3452567
235	0x3f9d4964	1.2288022
236	0x3cf20152	0.029541645
237	0x3e347ca7	0.17625676
238	0xc010f52f	-2.2649648
239	0xbf6afcd8	-0.9179206
240	0xbfa3f740	-1.280983
241	0xbfba804f	-1.4570407
242	0xbd6ae95a	-0.057351448
243	0xc04b1d77	-3.1736734
244	0x3e0b253a	0.1358842
245	0xbf7e94f4	-0.99446034
246	0x3fe56a51	1.792307
247	0x3cd64943	0.02615798
248	0xbdb47040	-0.088104725
249	0xbdd42b63	-0.10359838
250	0xbc728063	-0.014801118
251	0xbe123ed2	-0.14281777
252	0x3fa5203c	1.2900462
253	0xbfd00b52	-1.6253455
254	0xbce6cf62	-0.02817506
255	0x3eb9663d	0.36210814

gru_1.weight_hh_l0 f4 [48, 16]
0	0xbf3f0482	-0.74616253
1	0xbfd74472	-1.6817763
2	0xbf560b51	-0.8361102
3	0xbee52a7a	-0.4475897
4	0xbb7390d5	-0.0037165184
5	0xbf8d9779	-1.1061851
6	0x3dbc11ef	0.09183108
7	0xbe971d88	-0.29514718
8	0xbf989edb	-1.1923479
9	0x3cd9f3d3	0.026605522
10	0xbf2bb162	-0.6706754
11	0x3f871455	1.055308
12	0x3f153c65	0.5829528
13	0xbd79f346	-0.06102302
14	0xbf622ff9	-0.8835445
15	0xbe20be6c	-0.1569764
16	0x3e2f0b4c	0.17094153
17	0x3e824d3c	0.2544955
18	0xbeacc398	-0.33742976
19	0xbd961e1f	-0.07329964
20	0x3f0bc415	0.5459607
21	0x3f7e4255	0.99319965
22	0x3fb55faf	1.4169825
23	0xbfb5d4c9	-1.4205562
24	0xbe9d7b6e	-0.30758232
25	0x3ed394eb	0.41324553
26	0xbfbb52c9	-1.4634639
27	0x3e41ae91	0.18914248
28	0xbe4e5e01	-0.20153047
29	0x3ef8634a	0.48513252
30	0x3f233721	0.63755995
31	0x3e20115c	0.15631622
32	0xbf02d886	-0.5111164
33	0xbe1a69a1	-0.15079357
34	0xbf8228cf	-1.0168704
35	0xbf4faab8	-0.8111987
36	0x3eab770b	0.3348926
37	0xbf21f5a7	-0.6326546
38	0xbdaf90ce	-0.08572541
39	0x3ef5bc46	0.47995204
40	0x3f1a7c98	0.60346365
41	0x3e3521b4	0.17688638
42	0x3e2fda84	0.17173201
43	0x3f45f8f1	0.7733298
44	0xbf4b38ca	-0.7938353
45	0x3d1c13c5	0.03810479
46	0xbf0ff638	-0.56235075
47	0xbfc23c8f	-1.5174731
48	0xbd08796e	-0.03331893
49	0xbee42719	-0.4456108
50	0xbe00ac1c	-0.12565655
51	0xbf207bec	-0.6268909
52	0x3ed1abca	0.40951377
53	0x3f90f88a	1.1325848
54	0x3dc44a51	0.09584487
55	0xbeea2ad6	-0.45735806
56	0x3dcb27fa	0.09919734
57	0xbd3396d8	-0.043845028
58	0xbe70dfee	-0.23522922
59	0x3ed83235	0.42225805
60	0xbed5c67f	-0.41753003
61	0xbee31aeb	-0.44356474
62	0x3e75420d	0.23950978
63	0xbfb69560	-1.4264336
64	0x3f6c4bb0	0.9230299
65	0x3e8785bd	0.26469222
66	0xbe340507	-0.17580043
67	0xbf67d0fe	-0.9055327
68	0xbf56252f	-0.8365049
69	0x3f3b8793	0.73253745
70	0x4022f78d	2.5463593
71	0x3ee8b6e9	0.4545205
72	0x3e5bf75d	0.2148108
73	0x3e87c2b3	0.2651573
74	0x3f99ac8c	1.2005782
75	0xbd950af6	-0.07277481
76	0x3ddab7ff	0.10679626
77	0xbea90c58	-0.3301723
78	0xbf7a48be	-0.97767246
79	0x3f186ba1	0.5953923
80	0x3ed252fb	0.41078934
81	0x3e68e13a	0.22742167
82	0x3e83bbaa	0.25729114
83	0xbe12ec7c	-0.14348024
84	0xbecc5f18	-0.399163
85	0xbdac9cfd	-0.08428381
86	0xbd0fe838	-0.03513357
87	0xbf90ea37	-1.1321477
88	0xbf1d96b8	-0.61558104
89	0x3dcd4143	0.10022213
90	0xbfff89da	-1.9963944
91	0x3f578fc3	0.8420374
92	0xbf099970	-0.5374975
93	0x3f3cbf92	0.73729813
94	0x3f528bf0	0.8224478
95	0xbda0f825	-0.0785983
96	0x3dfe156d	0.124064304
97	0x3f0c5b01	0.5482636
98	0x3f84dfa4	1.038075
99	0x3e893710	0.26799822
100	0x3e0f8275	0.14014609
101	0xbedd28ac	-0.43195093
102	0x3d67f361	0.05662859
103	0x3e428045	0.18994243
104	0x3f1d463d	0.614353
105	0x3ebfceaf	0.37462375
106	0x3f4a2a4c	0.7897079
107	0xbd0dda0c	-0.034631774
108	0xbf76a65b	-0.9634759
109	0xbd1611b6	-0.036637984
110	0xbeef9787	-0.46795294
111	0x3e8b485e	0.2720365
112	0x3ef3f659	0.47648886
113	0xbf223fc7	-0.63378567
114	0xbf59b1ca	-0.8503691
115	0xbf0caabb	-0.54948014
116	0xbf348b89	-0.70525414
117	0x3f80d14d	1.0063874
118	0xbe9a4618	-0.30131602
119	0xbf5b07c2	-0.8555871
120	0x3fc9b61d	1.5758702
121	0x3e1b419a	0.15161744
122	0x3f5db599	0.8660522
123	0xbf11f16b	-0.57009
124	0xbecee181	-0.4040642
125	0xbfcfd382	-1.6236422
126	0x3ea18184	0.31544125
127	0xbf14e2a5	-0.5815833
128	0x3ee48ee6	0.44640273
129	0xbf983c3d	-1.1893383
130	0xbe35a8f9	-0.17740239
131	0x3e6edb94	0.2332595
132	0x3ec75b0f	0.3893666
133	0xbf1cba22	-0.61221516
134	0xbe2875cd	-0.16451187
135	0xbf7f583a	-0.99744
136	0x3eb97f4f	0.3622994
137	0xbd79320d	-0.060838748
138	0xbfde800a	-1.7382824
139	0x3eccf5f6	0.40031403
140	0xbf469156	-0.77565515
141	0x3ed253c1	0.41079524
142	0x3f79b8e6	0.9754776
143	0xbf86e19b	-1.0537599
144	0x3ef15597	0.47135612
145	0xbf561f3c	-0.8364141
146	0x3e3399fc	0.17539209
147	0x3f29162a	0.66049445
148	0xbe1d6b85	-0.15373047
149	0x3eb78285	0.35841766
150	0xbd8e9a64	-0.069630414
151	0x3efc7482	0.49307638
152	0xbf711382	-0.9417039
153	0x3f172bb8	0.59051085
154	0x3e51cb9f	0.20487832
155	0x3f73fac2	0.953045
156	0x3ea367d3	0.3191515
157	0x3d4b1b97	0.04958686
158	0xbee0b5a1	-0.43888572
159	0xbfc30ba4	-1.5237927
160	0xbf2a424b	-0.66507405
161	0xbea97511	-0.33097127
162	0x3ebf5bc6	0.37374705
163	0x3f1caf72	0.6120521
164	0x3e377a85	0.17917831
165	0xbe72bd77	-0.23705088
166	0xbe8fa73d	-0.2805728
167	0x3f2c3a91	0.67276865
168	0xbdcb3534	-0.09922257
169	0xbe61b757	-0.22042595
170	0x3f8c196a	1.0945256
171	0x3d889cc6	0.06670527
172	0x3f84720b	1.0347303
173	0x3edbc9fe	0.42927545
174	0x3e57f981	0.21091272
175	0x3cfc5473	0.030801987
176	0xbe9a241b	-0.3010567
177	0xbe81bfdb	-0.25341687
178	0x3ea6b03b	0.32556328
179	0x3c89a108	0.016800418
180	0x3e2267af	0.15859865
181	0xbed646cc	-0.4185089
182	0xbf8d8f75	-1.1059405
183	0xbee09295	-0.43861833
184	0x3f7c6b39	0.9860111
185	0xbe35c2df	-0.17750119
186	0x3f0b01de	0.54299724
187	0x3df89f45	0.12139753
188	0x3f088c6b	0.5333926
189	0xbe74fcfa	-0.23924628
190	0xbe8132fe	-0.25234216
191	0xbf00413a	-0.5009953
192	0x3e261434	0.16218644
193	0xbf3fe367	-0.74956363
194	0xbeb840ba	-0.35986882
195	0x3f124d74	0.57149434
196	0x3e232b26	0.15934429
197	0xbf889d74	-1.0673051
198	0xbf80d703	-1.0065616
199	0x3de17b72	0.110098734
200	0x3ed97717	0.4247367
201	0x3db4c021	0.08825708
202	0xbfa3dc32	-1.2801573
203	0xbbbda870	-0.0057879016
204	0x3dbf6ad4	0.09346548
205	0xbeba60ab	-0.36401877
206	0x3e4f45a7	0.20241414
207	0x3e86c152	0.26319367
208	0xbdcf5bf3	-0.1012496
209	0xbe6377e2	-0.222137
210	0x3e64f4ad	0.22358961
211	0x38ae7c96	8.3201725e-05
212	0xbd7546ed	-0.059882093
213	0xbf2908ab	-0.6602885
214	0xbf86560d	-1.0495011
215	0x3d95acad	0.07308326
216	0x3f94b75b	1.1618456
217	0xbd06aaa1	-0.03287757
218	0xbea1d1ae	-0.31605285
219	0x3e44259e	0.19154975
220	0xbd50e9bd	-0.05100416
221	0x3cf0bf02	0.029387955
222	0x3e57f3c1	0.21089078
223	0xbf03279c	-0.51232314
224	0xbe73e789	-0.23818792
225	0xbe09df35	-0.13464053
226	0xbe8074a7	-0.25089
227	0x3e770dbd	0.24126334
228	0x3f3a5e79	0.72800404
229	0xbf22c5f3	-0.63583297
230	0x3ebb3a35	0.36567846
231	0xbeecf2d6	-0.4627902
232	0x3fa90862	1.3205683
233	0xbe998f56	-0.2999217
234	0xbfa02513	-1.2511314
235	0x3b23b8e6	0.0024982034
236	0x3e4c7280	0.19965553
237	0xbdec2a22	-0.11531474
238	0xbf347f4d	-0.70506746
239	0x3ecb5f6e	0.39721245
240	0xbd37544a	-0.04475812
241	0xbe722fdc	-0.2365107
242	0x3f62bf84	0.8857348
243	0x3f323600	0.6961365
244	0x3e60b141	0.21942617
245	0xbe024e0e	-0.12725088
246	0x3f04ec82	0.5192338
247	0xbea4665f	-0.32109353
248	0x3f1c2d06	0.610062
249	0x3eafadaa	0.34312183
250	0x3fc7008d	1.5547043
251	0x3fa3aaeb	1.2786535
252	0xbfbb9d3c	-1.4657359
253	0x3e5b2986	0.21402559
254	0xbe0045c8	-0.1252662
255	0xbf13222c	-0.5747402

gru_1.bias_ih_l0 f4 [48]
0	0xbe3b1573	-0.18269901
1	0xbe607ecb	-0.21923368
2	0x3dfc3328	0.12314445
3	0x3e13b6e2	0.14425233
4	0xbddf58e1	-0.10905624
5	0xbe542957	-0.20718895
6	0x3c7756ef	0.01509641
7	0xbe1033bd	-0.14082237
8	0xbe891a39	-0.2677782
9	0x3e23f0a4	0.16009766
10	0xbe9a2dc0	-0.3011303
11	0xbee2acfc	-0.44272602
12	0x3e603089	0.21893515
13	0xbd08a89e	-0.03336393
14	0xbed9117d	-0.42396155
15	0xbe5a631a	-0.21326867
16	0xbefcb58e	-0.49357265
17	0xbed59897	-0.4171798
18	0x3b5b2906	0.00334412
19	0x3e65f3ea	0.22456327
20	0xbc05b67a	-0.008161182
21	0xbeb36d34	-0.35044253
22	0xbf013505	-0.50471526
23	0x3e8f1148	0.27942872
24	0xbefb835d	-0.4912366
25	0xbe866f33	-0.26256713
26	0xbf6f7433	-0.9353668
27	0xbe962c51	-0.29330686
28	0xbf06a105	-0.52589446
29	0xbd7f9961	-0.062402133
30	0xbe9f6f4a	-0.31139594
31	0x3eb2fdca	0.3495925
32	0x3ea41039	0.32043627
33	0x3eab09df	0.3340597
34	0xbd2ef25a	-0.042711593
35	0xbdb9351b	-0.09043332
36	0x3e25ef9f	0.1620469
37	0x3e060878	0.13089168
38	0x3e380413	0.17970304
39	0xbd976f74	-0.07394305
40	0xbdc803aa	-0.09766324
41	0xbf3d7006	-0.7399906
42	0xbdf56f67	-0.11984139
43	0x3d8ad44a	0.06778772
44	0xbdbfe7d9	-0.09370393
45	0xbd1f2ca8	-0.038860947
46	0x3e0e64a8	0.13905585
47	0x3edab487	0.42715856

gru_1.bias_hh_l0 f4 [48]
0	0xbe3b1573	-0.18269901
1	0xbe607ecb	-0.21923368
2	0x3dfc3328	0.12314445
3	0x3e13b6e2	0.14425233
4	0xbddf58e1	-0.10905624
5	0xbe542957	-0.20718895
6	0x3c7756ef	0.01509641
7	0xbe1033bd	-0.14082237
8	0xbe891a39	-0.2677782
9	0x3e23f0a4	0.16009766
10	0xbe9a2dc0	-0.3011303
11	0xbee2acfc	-0.44272602
12	0x3e603089	0.21893515
13	0xbd08a89e	-0.03336393
14	0xbed9117d	-0.42396155
15	0xbe5a631a	-0.21326867
16	0xbefcb58e	-0.49357265
17	0xbed59897	-0.4171798
18	0x3b5b2906	0.00334412
19	0x3e65f3ea	0.22456327
20	0xbc05b67a	-0.008161182
21	0xbeb36d34	-0.35044253
22	0xbf013505	-0.50471526
23	0x3e8f1148	0.27942872
24	0xbefb835d	-0.4912366
25	0xbe866f33	-0.26256713
26	0xbf6f7433	-0.9353668
27	0xbe962c51	-0.29330686
28	0xbf06a105	-0.52589446
29	0xbd7f9961	-0.062402133
30	0xbe9f6f4a	-0.31139594
31	0x3eb2fdca	0.3495925
32	0x3ede3db4	0.4340645
33	0xbe257ad9	-0.16160144
34	0x3e43bcb8	0.19114959
35	0xbe210440	-0.15724277
36	0xbe160966	-0.14652023
37	0xbe39dc6f	-0.18150495
38	0xbe3a5831	-0.18197705
39	0xbe9b2c1f	-0.303071
40	0x3e4188c7	0.18899833
41	0xbf7e4f0a	-0.99339354
42	0x3f6ff901	0.93739325
43	0xbf045079	-0.5168529
44	0xbdb48403	-0.08814242
45	0xbbbdf73e	-0.005797296
46	0x3ecac74f	0.39605185
47	0x3f1720f7	0.59034675

gru_1.weight_ih_l0_reverse f4 [48, 8]
0	0xbfec5a96	-1.8465145
1	0xc006acea	-2.1043038
2	0xbf4f21bb	-0.80910844
3	0x3feae51c	1.8351169
4	0x3f2d2e1d	0.6764849
5	0x3f84f889	1.0388347
6	0xc00caabd	-2.197921
7	0xbfaf7d78	-1.3710165
8	0xbd8818cb	-0.06645354
9	0xbd8ffc68	-0.070305645
10	0xbef03908	-0.4691851
11	0xbe94276e	-0.28936332
12	0xc0bab334	-5.8343754
13	0xbfb51af8	-1.4148855
14	0x3e434f97	0.1907333
15	0x3ebf431e	0.37355894
16	0x3f0bbbda	0.54583514
17	0x3f1d8145	0.61525375
18	0xbf105ab0	-0.5638838
19	0xbf621ee5	-0.8832839
20	0xbf99e4d7	-1.2022961
21	0xbf492691	-0.7857447
22	0xbe90f36e	-0.28310722
23	0xbef6ff44	-0.48241627
24	0x3c1a1809	0.0094051445
25	0xbe74f1fc	-0.23920435
26	0xbf32ebfd	-0.6989134
27	0xbfadfc39	-1.3592597
28	0x3f1ddf8a	0.6166922
29	0xbfee4f1b	-1.8617891
30	0x3eb6357c	0.3558768
31	0xbf46485d	-0.7745417
32	0x3f2711e1	0.65261656
33	0x3f1283bc	0.5723226
34	0xbf9a40a1	-1.2050973
35	0xbe3ede0d	-0.18639393
36	0x3f3bbcf0	0.7333517
37	0x3f658274	0.8965218
38	0x3d83319b	0.06405946
39	0x3f81f2f8	1.0152273
40	0x3fa89813	1.3171409
41	0x3fa5ba75	1.2947527
42	0xbff09db7	-1.8798131
43	0xbf39a3ab	-0.7251536
44	0x3de7e6f0	0.11323345
45	0x3f3799a7	0.7171883
46	0x3da9cf7f	0.0829153
47	0x3edc8c90	0.4307599
48	0xbf92d003	-1.146973
49	0xbf866fa9	-1.0502826
50	0xbf9489ba	-1.1604531
51	0xbff98598	-1.9493895
52	0x3f6ddda8	0.92916346
53	0xbff58a17	-1.9182767
54	0x3f7ea224	0.99466157
55	0x3f7dcd42	0.99141324
56	0xbfbeacb6	-1.4896457
57	0xbfa3fae9	-1.2810947
58	0x3eed9d60	0.4640913
59	0xbfb2eedc	-1.3979144
60	0xbfcd8462	-1.6056025
61	0xbedfe475	-0.43728986
62	0x3f755d8d	0.9584587
63	0x3d54cffb	0.051956158
64	0xbf925b36	-1.1434085
65	0xbf9f55b1	-1.2448026
66	0xbf922396	-1.141711
67	0x3f0587fe	0.5216063
68	0xbe44a58e	-0.19203779
69	0x3ed62e08	0.41831994
70	0xbda2d4b9	-0.0795073
71	0x3f470d47	0.77754635
72	0xbc1bbf3c	-0.009506043
73	0xbd7b0c18	-0.06129083
74	0x3fd3d925	1.6550642
75	0xbeb8c21f	-0.36085603
76	0xbf4540a4	-0.7705176
77	0xc016466d	-2.3480484
78	0x3f30d1fb	0.69070405
79	0xbf7098f8	-0.9398341
80	0x3f657372	0.8962928
81	0x3f9763cb	1.1827329
82	0xbf9e9c30	-1.2391415
83	0x3e3b5f9f	0.18298195
84	0x3ecc56c7	0.39909956
85	0x402226ae	2.5336108
86	0xc013ed3c	-2.3113546
87	0x3f3fe6ac	0.7496135
88	0xbe2de20c	-0.16980761
89	0x3c351b7c	0.011053916
90	0xbfa8f9ef	-1.3201274
91	0xbd61d9dc	-0.055139408
92	0x3f023249	0.5085798
93	0xbe3b5d8c	-0.18297404
94	0xbe8576af	-0.2606711
95	0x3e31ac3b	0.17350857
96	0x3fbdbadf	1.4822654
97	0x3fda11ca	1.7036679
98	0xbeac2ad8	-0.33626437
99	0xbe91ab8d	-0.28451195
100	0xbe19b981	-0.1501217
101	0xbf96af87	-1.1772317
102	0x404b55fa	3.1771226
103	0x4016c768	2.3559208
104	0xbfad23e9	-1.3526584
105	0xbf55f8fb	-0.8358304
106	0xbfbde610	-1.4835835
107	0xbf4a6bc4	-0.7907069
108	0xbf68f524	-0.90999055
109	0x3ff605b9	1.9220496
110	0x3efc6fb5	0.49303976
111	0xbf44d435	-0.768863
112	0xc0066af0	-2.100277
113	0xc00daea4	-2.2137842
114	0xbf8e6db9	-1.1127235
115	0x3f19ae93	0.60032004
116	0x402b5089	2.6767905
117	0x3eed84ea	0.46390468
118	0x3f52364f	0.8211412
119	0xbfdd20ad	-1.7275597
120	0xbf899235	-1.0747744
121	0xbf9d6537	-1.2296513
122	0x40b9a520	5.801407
123	0xbfcb6b81	-1.5892183
124	0xbf638862	-0.8887998
125	0x402fd6d6	2.7474875
126	0xc00ebf52	-2.2304273
127	0xc05e961d	-3.4779122
128	0x3f73f2af	0.9529218
129	0x3f8a9fcc	1.0830016
130	0x3f07a56e	0.529868
131	0xbdb9e30d	-0.090765096
132	0x405241af	3.285259
133	0x3f3fe855	0.74963886
134	0xbf6612b3	-0.8987228
135	0xbf03c8c4	-0.5147822
136	0x3f52bfb9	0.82323796
137	0x3f42a6f0	0.76035976
138	0x3ed172fc	0.4090804
139	0xbd73dc94	-0.05953653
140	0xbd8b6782	-0.06806852
141	0x3fcc0da8	1.5941668
142	0xbf497c6a	-0.78705466
143	0x3f715862	0.94275486
144	0xbfb21950	-1.3913975
145	0xbfca1fe6	-1.5790985
146	0xbf800115	-1.000033
147	0xbf66ef4b	-0.9020888
148	0xc049e150	-3.154377
149	0xbfc51970	-1.5398388
150	0xbe90280c	-0.28155553
151	0xbf885982	-1.0652316
152	0x3fda21d3	1.7041572
153	0x3fd9ec2b	1.7025198
154	0xbe984c85	-0.2974588
155	0x3e8e4c5b	0.2779263
156	0xbdbfca73	-0.09364786
157	0xbf13ac98	-0.5768523
158	0xbf3c4100	-0.7353668
159	0x3fb18f16	1.3871791
160	0xbe84c2a2	-0.25929743
161	0x3e22db8f	0.15904067
162	0xbe2b1f4d	-0.16711159
163	0x3d5445b3	0.051824283
164	0x3d55fa45	0.05224063
165	0x3e02f9d6	0.12790617
166	0x3eca6f7a	0.39538175
167	0xbe38278a	-0.17983833
168	0xbe1bdcff	-0.15221022
169	0xbe9e42f8	-0.30910468
170	0x400d7701	2.2103884
171	0xbe1d6e0e	-0.15374014
172	0x3f540484	0.8281939
173	0xbed7c403	-0.42141733
174	0xbe96baf8	-0.2943952
175	0xbf895ca8	-1.0731401
176	0xbeb8099e	-0.35944837
177	0xbefb4cc9	-0.4908202
178	0x3fa04016	1.2519557
179	0x3f18ba5a	0.5965935
180	0xbf9fce54	-1.2484841
181	0xbf5b0be5	-0.85565025
182	0xbe640793	-0.22268514
183	0xbf7b1897	-0.98084396
184	0xbf1515e4	-0.5823653
185	0xbeb99449	-0.36245945
186	0x3f612e09	0.8796087
187	0x3ec528a7	0.38507578
188	0x3ea946a5	0.3306171
189	0xbeae7b26	-0.3407833
190	0xbf161ab9	-0.58634526
191	0xbf22aad1	-0.63541895
192	0x3f016256	0.50540674
193	0x3f1ee23c	0.62063956
194	0xc019bd77	-2.402189
195	0x3d912b9d	0.07088397
196	0x3e9d847b	0.30765137
197	0x3cadb0c0	0.021202445
198	0x3da12383	0.078681014
199	0x3fa2bb5d	1.2713429
200	0x3ea2381f	0.31683442
201	0x3ef2db53	0.47432956
202	0xbe157ae6	-0.14597663
203	0x3e1b155a	0.15144864
204	0x3e613e44	0.21996409
205	0xbe5f7e29	-0.2182547
206	0x3f46437d	0.7744673
207	0xbf3dcf2f	-0.7414426
208	0x3eceb945	0.40375724
209	0x3ecba39c	0.39773262
210	0xbfe2341c	-1.7672153
211	0x3d50d902	0.050988205
212	0x3f5e1dd8	0.8676429
213	0x3fc0b684	1.5055699
214	0xc002078e	-2.031711
215	0x3d87a3e4	0.066230565
216	0x3e3ec32c	0.1862914
217	0x3de8dc92	0.113701954
218	0x3e6441a3	0.22290663
219	0x3f9b1af4	1.21176
220	0x3f1693d3	0.5881931
221	0x3e2feddd	0.17180581
222	0x3dec2088	0.11529642
223	0xbf1bbbd2	-0.60833466
224	0xbf8793d1	-1.0591985
225	0xbf9eceab	-1.240682
226	0xbf90b053	-1.130381
227	0x3c950409	0.0181904
228	0xbf361e53	-0.7114002
229	0x3f558bff	0.8341674
230	0x402e688a	2.7251306
231	0x3d2c2c48	0.042034417
232	0xbcc59bed	-0.024122203
233	0xbad5ff87	-0.0016326763
234	0x3d9425aa	0.07233746
235	0xbeabc399	-0.33547667
236	0xbf88efb4	-1.0698152
237	0x3e852fb0	0.26012945
238	0xbeba8e87	-0.36436865
239	0xbfa34a1c	-1.2756991
240	0x3f19d534	0.6009095
241	0x3e70da88	0.23520863
242	0x3fdc5b84	1.7215428
243	0xbe8c3391	-0.27383092
244	0x3f9db096	1.2319515
245	0x3e477e98	0.19481885
246	0xbf267897	-0.65027755
247	0xbfaaf0f0	-1.3354778
248	0xbff72784	-1.9308934
249	0xbffd1a50	-1.9773655
250	0x3fb0b1cc	1.3804259
251	0xc061198e	-3.5171847
252	0x3bc6b3e5	0.0060639256
253	0xbca46ea7	-0.020072294
254	0x3f31c9f7	0.694488
255	0xbf95e570	-1.1710644

gru_1.weight_hh_l0_reverse f4 [48, 16]
0	0xbe0bf4fb	-0.13667671
1	0xbf3cdc38	-0.7377353
2	0xbd884518	-0.066538036
3	0xbe4c5ef4	-0.19958097
4	0x3f21e861	0.6324521
5	0xbeef2447	-0.46707365
6	0x3f514c4b	0.8175704
7	0xbf8545ef	-1.0411967
8	0xbed18bfd	-0.40927115
9	0x3f8a8542	1.0821917
10	0x3f84d21f	1.0376624
11	0xbda34d5f	-0.07973742
12	0xbfe518f0	-1.7898235
13	0x3fa8a9cc	1.3176818
14	0x3f155c94	0.5834439
15	0x3fd7b70b	1.6852735
16	0xbe82ce42	-0.25547987
17	0xbc8baea0	-0.017051041
18	0x3d728ee6	0.05921831
19	0xbe6e0c3c	-0.23246855
20	0xbdfc1d35	-0.12310258
21	0xbcac6c4b	-0.021047732
22	0x3dfd87e9	0.123794384
23	0x3e882db4	0.2659737
24	0xbe9185b7	-0.2842233
25	0x3e4004a3	0.18751769
26	0x3e1af25f	0.1513152
27	0xbe240256	-0.16016516
28	0xbf25a993	-0.64711875
29	0xbd1d2452	-0.038364716
30	0xbeec2932	-0.4612518
31	0x3d9a170b	0.07523926
32	0x3f302a5a	0.68814623
33	0xbe941da8	-0.28928876
34	0x3d37b14b	0.044846814
35	0x3e0a3efe	0.13500592
36	0xbd02f229	-0.031969223
37	0x3e8cb78f	0.27483794
38	0xbc88a43c	-0.016679876
39	0xbe740688	-0.23830616
40	0xbe59ff0f	-0.21288703
41	0x3e87ab65	0.2649795
42	0xbf610959	-0.8790489
43	0xbeb59649	-0.3546622
44	0x3d9f749a	0.07785912
45	0xbeee70e6	-0.4657051
46	0xbf35352a	-0.70784247
47	0xbec6ddac	-0.38840997
48	0xbf718bf7	-0.94354194
49	0x3fb99e78	1.4501486
50	0x3ed956b8	0.42448974
51	0xbf3fdd97	-0.74947494
52	0x3dce254f	0.1006571
53	0xbea1e9f3	-0.31623802
54	0x3f33b6dc	0.70200896
55	0x3f1583d9	0.5840431
56	0x3f83f0cd	1.0307862
57	0xbf105ed1	-0.5639468
58	0x3ec22ba2	0.37923914
59	0x3e8d1016	0.27551335
60	0x3f848bcd	1.0355164
61	0x3eceaa47	0.40364286
62	0xbe24273e	-0.16030595
63	0x3f85ee66	1.0463378
64	0x3f860d4c	1.0472808
65	0x3ee68543	0.45023546
66	0x3c8b3837	0.016994579
67	0x3a9c6b87	0.0011933901
68	0xbe868a53	-0.26277408
69	0xc01a5d67	-2.4119508
70	0xbe0f950e	-0.14021704
71	0x3fbadd1b	1.4598726
72	0x3f563b72	0.83684456
73	0x401025e3	2.2523124
74	0xbb55a2ee	-0.0032598334
75	0xbfa9b2fe	-1.3257749
76	0xbe0e88bf	-0.13919352
77	0x3f14aed7	0.58079284
78	0xbe8f30df	-0.27966973
79	0x3ef8063b	0.48442253
80	0x4003b19f	2.0577161
81	0x3ff9b0eb	1.9507116
82	0x3d0480e5	0.032349486
83	0x3d5049f3	0.050851773
84	0xbfb9cf72	-1.4516432
85	0xbf9830cf	-1.1889895
86	0x3e31602c	0.17321843
87	0xbf63244d	-0.88727266
88	0xbf0f79c5	-0.5604518
89	0x3e6f5f40	0.23376179
90	0x3e8ca8ca	0.27472526
91	0xbf1d01a3	-0.6133062
92	0xbd80a175	-0.062807955
93	0xbf980e75	-1.1879412
94	0xbf616402	-0.88043225
95	0x3ec86de9	0.39146355
96	0xbdb42f1b	-0.08798047
97	0xbe65accc	-0.22429198
98	0xbdb54b33	-0.08852234
99	0xbf15466d	-0.58310586
100	0x3e4cf891	0.20016696
101	0x3e146be7	0.14494286
102	0x3f444410	0.76666355
103	0xbe781d6c	-0.24229974
104	0xbf9cdbe4	-1.2254605
105	0x3e77bf8e	0.24194166
106	0xbe83b23b	-0.25721917
107	0x3ef78705	0.483452
108	0x3f223dc8	0.6337552
109	0x3f68aa5a	0.90884936
110	0x3e08f0be	0.13373086
111	0x3f971c33	1.1805481
112	0x3e53ec70	0.20695662
113	0xbeb66c39	-0.35629442
114	0x3d1fc269	0.039003763
115	0xbf2bd325	-0.67119056
116	0x3f20ad36	0.627643
117	0xbd9bae0a	-0.07601555
118	0x3f3ac47e	0.72956073
119	0xbe9c0855	-0.30475107
120	0xbef9955f	-0.48746774
121	0x3f3b9daa	0.7328745
122	0x3f44fb5e	0.76946056
123	0x3f2ee0ab	0.68311566
124	0x3ec9b486	0.3939554
125	0xbe8afbc0	-0.27145195
126	0xbb5bfccb	-0.0033567424
127	0x3d1675ea	0.036733545
128	0xbe29ce54	-0.16582614
129	0x3d98ac09	0.07454688
130	0xbe9cbe04	-0.3061372
131	0xbf9a063e	-1.2033155
132	0x3f4863bc	0.7827718
133	0x3f5f4aa3	0.8722326
134	0x3ecf325b	0.40468106
135	0x3f21883f	0.6309852
136	0xbe8464ed	-0.2585825
137	0xbe7a98a4	-0.2447229
138	0xbe929862	-0.28631884
139	0x3e423637	0.18965994
140	0xbeea74f6	-0.4579236
141	0x3efbc265	0.4917175
142	0xbedfdaf0	-0.43721724
143	0xbdb02735	-0.08601228
144	0xbf684433	-0.90729064
145	0xbeb29f69	-0.34887245
146	0x3ebd7eea	0.3701089
147	0x3f0590e5	0.52174217
148	0xbe830b6d	-0.25594655
149	0xbf101ed0	-0.56297016
150	0xbe3a59b6	-0.18198285
151	0xbce2623d	-0.027634734
152	0x3f072108	0.52784777
153	0x3f5f0eed	0.8713215
154	0xbe0341b8	-0.12818038
155	0x3d1646c6	0.03668859
156	0xbece651d	-0.40311518
157	0xbf49aeed	-0.7878254
158	0x3eb6edba	0.35728246
159	0xbe92b7f1	-0.2865596
160	0xbf627bdd	-0.8847025
161	0x3e4413b4	0.19148141
162	0xbd699578	-0.05702731
163	0xbe5d1fbf	-0.21594141
164	0xbe9c3f31	-0.3051696
165	0xbd7f1491	-0.062275473
166	0xbd0bf3c8	-0.034168035
167	0xbe3b1031	-0.18267895
168	0xbe4c19da	-0.19931737
169	0xbea7dead	-0.32787076
170	0x3f6a89f9	0.9161678
171	0xbdea1f45	-0.114317454
172	0xbf034729	-0.51280457
173	0xbf32d025	-0.69848853
174	0xbf2c6760	-0.6734524
175	0xbf254630	-0.6456022
176	0x3ef90c9a	0.48642427
177	0x3dfe1a76	0.12407391
178	0xbefd25b9	-0.49442843
179	0xbf3dc50f	-0.7412881
180	0x3df1470b	0.117811285
181	0xbfa2d053	-1.2719826
182	0xbe0b1603	-0.13582616
183	0x3f0ee88d	0.55823594
184	0x3f1391bd	0.57644254
185	0x3e78b165	0.2428642
186	0xbf090236	-0.53519
187	0xbf823397	-1.0171994
188	0x3fe425fa	1.782409
189	0x3e61c87b	0.22049133
190	0xbdae85d9	-0.08521623
191	0x3eabbdd9	0.3354328
192	0xbf99d7cd	-1.2018982
193	0xbd241b39	-0.040065024
194	0xbe3d00a2	-0.18457273
195	0x3e675f4d	0.22594948
196	0xbc8b28cd	-0.016987229
197	0x3f9b90c4	1.2153554
198	0x3ea1e63b	0.31620964
199	0xbddd8d1f	-0.10817932
200	0x3df27832	0.11839332
201	0xbed76af6	-0.42073792
202	0x3f2b483e	0.6690711
203	0xbf701dff	-0.9379577
204	0xbf43e0ce	-0.765149
205	0x3d4f0fc0	0.05055213
206	0xbe8f4553	-0.27982578
207	0xbf532d2c	-0.824908
208	0xbf2fa95e	-0.6861781
209	0x3f8ab61b	1.0836824
210	0xbd3e9bfb	-0.046535473
211	0xbe194229	-0.14966644
212	0xbf3160a0	-0.69288063
213	0xbee79fde	-0.45239156
214	0x3ecebce2	0.4037848
215	0x3e5432e0	0.20722532
216	0x3e99b6b4	0.30022204
217	0xbe183a81	-0.14866067
218	0xbf221a10	-0.6332102
219	0x3f3c6e9e	0.7360629
220	0xbf090e00	-0.5353699
221	0xbefd0009	-0.4941409
222	0xbf262073	-0.64893264
223	0xbe6836b4	-0.22677118
224	0x3dc0c27b	0.09412094
225	0xbeef7954	-0.46772254
226	0x3ef38214	0.4756018
227	0x3eb4d8db	0.35321698
228	0x3f03a3aa	0.51421607
229	0xbf11eeb6	-0.5700487
230	0x3f736e45	0.9509013
231	0x3f3ed153	0.74538153
232	0x3db5e510	0.08881581
233	0xbf1a03aa	-0.6016184
234	0xba91e432	-0.001113063
235	0x3f47ea2a	0.7809168
236	0x3d4109d5	0.047128517
237	0xbf5cc1ae	-0.8623303
238	0x3ed34a8d	0.41267815
239	0xbf366c1f	-0.7125873
240	0x3f024544	0.5088694
241	0xbd497477	-0.049183335
242	0x3ecd1f64	0.40063012
243	0xbf130e20	-0.5744343
244	0xbe6d9d24	-0.23204476
245	0x3e8c78db	0.27435955
246	0xbe0afdcd	-0.1357338
247	0x3f1bce9f	0.60862154
248	0x3e6ff136	0.23431858
249	0xbe2f2573	-0.1710413
250	0xbc1016fc	-0.008794542
251	0x3f19e5f1	0.6011649
252	0xbfa9e8e1	-1.3274194
253	0x3f0fe1d8	0.56203985
254	0x3e927ffc	0.2861327
255	0xbecab194	-0.39588606

gru_1.bias_ih_l0_reverse f4 [48]
0	0xbdf8d5cc	-0.121501535
1	0xbe23a328	-0.15980208
2	0x3e92c6af	0.2866721
3	0xbd27ad15	-0.04093655
4	0x3e18cf93	0.14922933
5	0x3c09c076	0.008407703
6	0x3d293a5d	0.041315425
7	0xbc389d62	-0.011267992
8	0x3e93b5da	0.2884968
9	0xbe51ab03	-0.20475392
10	0xbe46343a	-0.1935586
11	0xbe9cc27d	-0.30617133
12	0xbf3a0bde	-0.7267436
13	0xbe74386a	-0.23849645
14	0xbecdffe4	-0.40234292
15	0xbebce9ac	-0.36897027
16	0xbe85d3a7	-0.2613804
17	0xbf59ecff	-0.8512725
18	0xbe33a57b	-0.17543595
19	0xbf4b1e3a	-0.79343
20	0xbe9ba585	-0.3039972
21	0x3e264508	0.16237271
22	0xbd0aa0d0	-0.03384477
23	0xbeed1396	-0.46304005
24	0xbe191b7a	-0.14951888
25	0x3e295888	0.16537678
26	0xbf8dd374	-1.1080155
27	0x3eefecbf	0.4686031
28	0xbefff536	-0.4999177
29	0xbe700002	-0.23437503
30	0xbedd3688	-0.43205667
31	0xbe901c0f	-0.28146407
32	0xbecc2df2	-0.39878803
33	0xbe647a3e	-0.22312257
34	0xbea09579	-0.3136404
35	0xbe1ef054	-0.15521365
36	0xbe055eae	-0.13024399
37	0x3dee8352	0.11646141
38	0xbd3f5e8b	-0.046721023
39	0x3de9695d	0.113970496
40	0xbcf7b5ea	-0.03023811
41	0x3e20feaa	0.15722147
42	0xbee4cf63	-0.44689474
43	0x3dd518d5	0.10405127
44	0x3e7d7869	0.24752964
45	0xbe01a37a	-0.12660018
46	0x3e62de3c	0.22155088
47	0x3ead5458	0.33853412

gru_1.bias_hh_l0_reverse f4 [48]
0	0xbdf8d5cc	-0.121501535
1	0xbe23a328	-0.15980208
2	0x3e92c6af	0.2866721
3	0xbd27ad15	-0.04093655
4	0x3e18cf93	0.14922933
5	0x3c09c076	0.008407703
6	0x3d293a5d	0.041315425
7	0xbc389d62	-0.011267992
8	0x3e93b5da	0.2884968
9	0xbe51ab03	-0.20475392
10	0xbe46343a	-0.1935586
11	0xbe9cc27d	-0.30617133
12	0xbf3a0bde	-0.7267436
13	0xbe74386a	-0.23849645
14	0xbecdffe4	-0.40234292
15	0xbebce9ac	-0.36897027
16	0xbe85d3a7	-0.2613804
17	0xbf59ecff	-0.8512725
18	0xbe33a57b	-0.17543595
19	0xbf4b1e3a	-0.79343
20	0xbe9ba585	-0.3039972
21	0x3e264508	0.16237271
22	0xbd0aa0d0	-0.03384477
23	0xbeed1396	-0.46304005
24	0xbe191b7a	-0.14951888
25	0x3e295888	0.16537678
26	0xbf8dd374	-1.1080155
27	0x3eefecbf	0.4686031
28	0xbefff536	-0.4999177
29	0xbe700002	-0.23437503
30	0xbedd3688	-0.43205667
31	0xbe901c0f	-0.28146407
32	0xbe1f845b	-0.15577833
33	0x3f04b69a	0.5184113
34	0xbef1809c	-0.47168434
35	0x3f1b7896	0.60730875
36	0xbe6b02d2	-0.22950295
37	0x3d2d51b8	0.04231426
38	0x3d8fc78a	0.07020481
39	0xbd89d7b3	-0.067305945
40	0x3d6aeb43	0.05735327
41	0x3c92e97a	0.017933596
42	0x3d87ce5b	0.06631156
43	0x3d57b693	0.05266435
44	0xbf1e5afc	-0.6185758
45	0xbd9e2e57	-0.077236824
46	0x3dbde98b	0.092730604
47	0xbf269f2d	-0.6508663

layer_norm_2.weight f4 [32]
0	0x3e8617da	0.26190072
1	0x3e8a130b	0.26967654
2	0x3e971fc4	0.29516423
3	0x3ec57cb4	0.38571703
4	0x3f1d0435	0.61334544
5	0x3ee27aea	0.442344
6	0x3e3fb32c	0.18720692
7	0x3f02b1bf	0.5105247
8	0x402c404e	2.6914248
9	0x4003642b	2.0529888
10	0x3f0b96b1	0.5452681
11	0x3f8c2bc4	1.0950856
12	0x3f077734	0.52916265
13	0x3f68c391	0.9092341
14	0x3fa44aec	1.2835364
15	0x3effaf3c	0.4993838
16	0x3fc9dc1d	1.5770298
17	0x3f98d42b	1.1939749
18	0x3ea3983a	0.31952077
19	0x3eacec71	0.3377414
20	0x3f88d06b	1.0688604
21	0x3fb2f8c6	1.398217
22	0x3f0074b9	0.50178105
23	0x3f8928f7	1.0715626
24	0x3fd563b4	1.6671052
25	0x3ece8efb	0.4034346
26	0x3f1d3f01	0.6142426
27	0x3fac60f5	1.3467089
28	0x3f5b92a0	0.85770607
29	0x3f50768a	0.81430876
30	0x3f41ffc7	0.7578091
31	0x3f25703d	0.6462439

layer_norm_2.bias f4 [32]
0	0x3d061af0	0.032740533
1	0xbd1f3d97	-0.038877096
2	0x3d02d4de	0.031941287
3	0xbdfd9e71	-0.12383736
4	0xbf89713c	-1.0737681
5	0x3bd0106d	0.0063496144
6	0xbcfad312	-0.030618224
7	0xbeb7c82c	-0.35894907
8	0xbf3aeba2	-0.730158
9	0xbd59be9f	-0.053160306
10	0x3d8192c5	0.06326822
11	0xbedf9677	-0.43669483
12	0x3e155da4	0.14586502
13	0x3d467658	0.048452705
14	0x3e02ccd7	0.12773453
15	0xbe836450	-0.2566247
16	0xbf6adbb0	-0.91741467
17	0xbf2b321e	-0.6687335
18	0xbe8baa39	-0.27278307
19	0x3b2a867c	0.00260201
20	0xbc9b8350	-0.018983513
21	0xbe9932ce	-0.29921573
22	0x3da5df76	0.080992624
23	0xbf8973d0	-1.0738468
24	0xbedeadc7	-0.43491957
25	0xbe412088	-0.18860066
26	0xbe1ecd0b	-0.15507905
27	0xbec32c93	-0.38119945
28	0xbed7d1fb	-0.4215239
29	0xbeac1324	-0.33608353
30	0xbe86e185	-0.26343933
31	0xbeeec25e	-0.46632665

gru_2.weight_ih_l0 f4 [48, 32]
0	0xbefe3ae4	-0.49654305
1	0xbe32511e	-0.17413756
2	0x3f4e8dab	0.8068492
3	0xbf1d52ea	-0.6145464
4	0x3e9c18d6	0.30487698
5	0x3fc0828b	1.5039839
6	0xbe7ffa69	-0.24997868
7	0xbf1c3802	-0.6102296
8	0x3e14b163	0.14520793
9	0x3f4f1833	0.808963
10	0x3fa100b9	1.2578346
11	0x3f82ecaf	1.022848
12	0x3f3c96b2	0.7366744
13	0x3e9857bb	0.29754433
14	0x3f2af081	0.6677323
15	0x3f461079	0.77368885
16	0xbdd14525	-0.102182664
17	0x3eb823f8	0.35964942
18	0xbf92ea34	-1.1477723
19	0xbf70b857	-0.9403128
20	0xbc75f30b	-0.015011559
21	0x3f31f1e1	0.695097
22	0xbdecbaa6	-0.11559038
23	0x3f0c34c1	0.54767996
24	0x3b9d02ae	0.004791579
25	0x3ec5f4e8	0.3866341
26	0xbcf5c7fd	-0.030002588
27	0x3e76085f	0.24026631
28	0x3da5e362	0.081000105
29	0x3ecc91a7	0.39954874
30	0x3f29943a	0.662418
31	0xbd81483c	-0.06312606
32	0xbea90298	-0.3300979
33	0xbe427999	-0.18991698
34	0x3f22c2e1	0.6357861
35	0x3eda4c3e	0.42636293
36	0xbe206385	-0.15662964
37	0xbf426d5b	-0.75948113
38	0x3e5d32e0	0.21601439
39	0x3e872f86	0.26403445
40	0xbf9d6ed4	-1.2299447
41	0x3e33c276	0.1755465
42	0x3f315615	0.69271976
43	0x3f028782	0.5098802
44	0x3ddc10b2	0.10745372
45	0x3d34cac1	0.044138674
46	0x3f206e60	0.6266842
47	0xbedb3119	-0.42810896
48	0x3f1923fd	0.5982054
49	0x3edd61e0	0.43238735
50	0xbdce829a	-0.10083504
51	0x3ecb9483	0.39761743
52	0xc00389df	-2.05529
53	0x3ecc2e83	0.39879236
54	0xbe569fd3	-0.20959406
55	0x3f85e4b1	1.0460416
56	0xbdf249bb	-0.11830469
57	0xbe5b7cce	-0.21434328
58	0x3f952274	1.1651139
59	0xbf736a2a	-0.9508387
60	0xbf89cfeb	-1.0766577
61	0xbfade499	-1.3585387
62	0x3f94009a	1.1562684
63	0x3f61bae5	0.88175803
64	0x3fa94976	1.3225543
65	0x3f0abca3	0.54194087
66	0xbf17e076	-0.59326875
67	0x3f1fdcc4	0.62446237
68	0xbf963c7c	-1.1737208
69	0x3f715e28	0.94284296
70	0x3e8e8863	0.2783843
71	0x3f4a4f57	0.79027313
72	0x3f05de0d	0.5229195
73	0x3f4150ea	0.7551409
74	0xbf1806c1	-0.59385306
75	0xbf2bf679	-0.6717296
76	0xbfbca3d0	-1.4737492
77	0xbed1917c	-0.40931308
78	0xbf516999	-0.81801754
79	0xbf96340d	-1.1734635
80	0x3f0f7890	0.5604334
81	0xbf35cb60	-0.7101345
82	0x3d3d537e	0.046222202
83	0x3fa84575	1.3146197
84	0xbddea6b9	-0.108716436
85	0xbfba9c24	-1.45789
86	0xbee0b30f	-0.4388661
87	0xbfa0ccb5	-1.2562472
88	0x3f4d98a5	0.8031104
89	0xbecd9c17	-0.4015815
90	0x3e9c6c4d	0.30551377
91	0x405c7585	3.4446728
92	0x3fddc115	1.7324549
93	0x3e8b1dc0	0.27171135
94	0x3f7dff3d	0.9921759
95	0x3f024ec7	0.50901455
96	0x3fb1b3a8	1.3882952
97	0x3f308416	0.6895155
98	0x3eef397d	0.46723548
99	0xbe39c9f5	-0.18143447
100	0xbe53858b	-0.20656411
101	0x3eb660e7	0.35620806
102	0x3f254060	0.64551353
103	0x3ef1d53d	0.47233
104	0xbda06b1f	-0.07832932
105	0x3f414b6c	0.7550571
106	0xbf0ef270	-0.5583868
107	0xbf1cd279	-0.61258656
108	0x3dd2b74a	0.10288866
109	0x3eab2649	0.33427647
110	0xbd94ebdc	-0.07271549
111	0xbee1b754	-0.4408518
112	0xbea3cca6	-0.31992072
113	0x3f5c47a6	0.86046827
114	0xbf7bc2d0	-0.98344135
115	0xbf3ee75f	-0.74571794
116	0x3f0dba97	0.5536284
117	0xbec49734	-0.3839661
118	0xbfac6e77	-1.3471211
119	0xbf17c2d8	-0.5928168
120	0x3f3d15bb	0.73861283
121	0xbe7b00d3	-0.24512033
122	0xbf8ae004	-1.0849614
123	0x3f1d732c	0.61503863
124	0x3f584760	0.8448391
125	0x3f12bee1	0.5732251
126	0x3ecc994a	0.399607
127	0xbefea701	-0.4973679
128	0x3f1cdbaf	0.6127271
129	0x3e8bff04	0.27343
130	0xbf10cb9f	-0.565607
131	0xbe9fd63c	-0.31218135
132	0xbeccde34	-0.40013278
133	0xbe87d65b	-0.26530728
134	0x3dfbcd3e	0.12295006
135	0xbf3479b7	-0.7049822
136	0x3ed3e1f4	0.41383326
137	0x3dd20ba3	0.10256126
138	0xbe3b6f4b	-0.18304174
139	0x3ebb73ed	0.36611882
140	0xbe02903b	-0.12750332
141	0x3da1b04a	0.078949526
142	0x3f2116f7	0.62925667
143	0x3f14396d	0.57900125
144	0xbe88d60b	-0.26725802
145	0xbf91e623	-1.1398357
146	0xbf5a10aa	-0.8518168
147	0x3f8b9138	1.0903692
148	0x3f60406f	0.8759832
149	0x3f01ee7c	0.50754523
150	0xbef19305	-0.4718248
151	0x3fdee022	1.741215
152	0x3f86d5d5	1.0534006
153	0x3fb15fed	1.3857399
154	0xbc8a34bd	-0.01687085
155	0xbf4c532f	-0.7981443
156	0xbee4c862	-0.4468413
157	0xbe81209c	-0.2522019
158	0xbecb9ff6	-0.39770478
159	0x3e626499	0.22108687
160	0x3e00b6d8	0.1256975
161	0x3e79c207	0.24390422
162	0x3ec35846	0.38153285
163	0x3f178981	0.5919419
164	0xbfb68313	-1.4258751
165	0x3f2fc55b	0.68660516
166	0x3f896f51	1.0737096
167	0xbeab9203	-0.33509836
168	0xbd4ac051	-0.049499813
169	0x3f1ef10d	0.62086564
170	0x3e57cd7a	0.21074477
171	0x3ed66d2e	0.41880172
172	0xc035fdd3	-2.8436172
173	0xbfa3f24d	-1.2808319
174	0xbfe3d946	-1.7800682
175	0x3daae7ab	0.083449684
176	0x3eda9a52	0.42695862
177	0x3e2085d4	0.15676051
178	0x3fe73a20	1.8064613
179	0x4008bc46	2.1364913
180	0xbf347304	-0.70488
181	0xbfd8e707	-1.6945504
182	0xbf121962	-0.5706998
183	0x3f08952d	0.53352624
184	0xbf91702b	-1.1362356
185	0x3fa80270	1.3125744
186	0x3ff0c0ba	1.8808815
187	0x3fc6edd5	1.554133
188	0xbdc39fe5	-0.09551982
189	0x3f0f3d55	0.5595296
190	0x3e5ad6ff	0.21371077
191	0xbe81d521	-0.25357917
192	0x3e154600	0.14577484
193	0x3f5feb0c	0.8746803
194	0x3f24a5a3	0.6431524
195	0xbef40126	-0.47657126
196	0x3ef020a8	0.46899915
197	0x3e9a8c72	0.30185276
198	0x3d20d5cf	0.039266404
199	0xbd312162	-0.043244727
200	0xbf5b709c	-0.85718703
201	0x3d754fed	0.059890676
202	0x3f9158ec	1.1355262
203	0xbea7464b	-0.32670817
204	0x3f92270d	1.1418167
205	0xbd7437a7	-0.059623387
206	0xbf38d17b	-0.7219464
207	0x3f5ecf52	0.87035096
208	0x3ef984b1	0.48734048
209	0x3e16f19a	0.14740601
210	0xbf0f31e7	-0.5593552
211	0x3ef04134	0.46924746
212	0xbea6d3a8	-0.32583356
213	0xbf044e1a	-0.51681674
214	0xbef34ae5	-0.47518077
215	0x3f27e68f	0.6558618
216	0x3f2acb17	0.6671614
217	0x3f9c5807	1.2214364
218	0x3ddc51d9	0.10757799
219	0x3fb17d10	1.3866291
220	0xbe9425b0	-0.28935003
221	0x3e0e1b0a	0.13877502
222	0xbf6c2dd2	-0.92257416
223	0xbf737986	-0.95107305
224	0xc01af534	-2.421216
225	0xbf212a14	-0.6295483
226	0x3f605f40	0.8764534
227	0x3eee4710	0.4653859
228	0x3f2aae89	0.6667257
229	0xbf5549bd	-0.8331564
230	0xbdffd8a5	-0.124924935
231	0x3e053fde	0.13012645
232	0xbf85fb2e	-1.0467279
233	0xbe5f38f5	-0.21799071
234	0x3dc49b56	0.095999405
235	0x4013ad53	2.3074539
236	0xbf31bc3d	-0.69427854
237	0xbf19d91a	-0.60096896
238	0x3e97ac1e	0.29623502
239	0x3f023dd1	0.50875574
240	0xbf16e764	-0.58946824
241	0x3ed2e448	0.4118979
242	0x3e036622	0.1283193
243	0xbf9bad1d	-1.2162205
244	0xbf2f520e	-0.6848458
245	0xbf1bc08a	-0.60840666
246	0x3f79eb79	0.9762493
247	0xbfabdbc6	-1.3426445
248	0x3f576668	0.84140635
249	0xbe09ce4e	-0.13457605
250	0xbf0b1094	-0.5432217
251	0x3f9cbff2	1.2246077
252	0xbf596d1b	-0.84932107
253	0x3e294074	0.16528493
254	0x3fc487c1	1.5353929
255	0x3f37009c	0.71485305

gru_2.weight_hh_l0 f4 [48, 16]
0	0x3dafa2b7	0.08575957
1	0xbeb951f3	-0.36195335
2	0x3f2678e2	0.650282
3	0xbe912808	-0.28350854
4	0x3e864f7a	0.2623251
5	0x3e5e6554	0.21718341
6	0x3e2129ac	0.15738553
7	0xbf1cba89	-0.6122213
8	0xbe2237c8	-0.15841591
9	0xbebd7766	-0.37005156
10	0xbd9f8abb	-0.077901326
11	0xbdc64e09	-0.09682853
12	0x3e59d00c	0.2127077
13	0xbece29a8	-0.40266156
14	0x3e8f46fc	0.27983844
15	0xbf3f88d6	-0.7481817
16	0xbeb59a10	-0.35469103
17	0x3e8e8c09	0.27841213
18	0xbe67154a	-0.22566715
19	0xbfaf41b5	-1.3691927
20	0xbe652a32	-0.22379377
21	0xbe59db24	-0.21275002
22	0x3ef57ce3	0.47946844
23	0x3eb9f2ca	0.36318046
24	0xbff67d31	-1.9256955
25	0x3e8de719	0.27715376
26	0xbde8bde1	-0.113643415
27	0x3ed02011	0.40649465
28	0x3f091ba3	0.53557795
29	0x3b02f202	0.0019980674
30	0x3ecd552b	0.4010404
31	0xbf05bcdd	-0.5224131
32	0x3b8a735f	0.004225179
33	0xbdc39def	-0.09551608
34	0x3f2e49b9	0.6808124
35	0xbf2f5c5d	-0.6850031
36	0xbee12f35	-0.4398133
37	0xbec01629	-0.37516907
38	0x3be8434e	0.0070881015
39	0x3d01b49f	0.031666394
40	0xbce6907b	-0.028145066
41	0x3d6ae372	0.057345815
42	0x3ee46137	0.4460542
43	0x3e753a2a	0.23947969
44	0x3ed7ee47	0.4217398
45	0x3f5c7f5d	0.8613184
46	0x3e6515e8	0.22371638
47	0xbf806a60	-1.0032463
48	0x3bc41d6b	0.005984952
49	0x3e7c94d3	0.24666147
50	0x3ed7bbb3	0.4213539
51	0xbcb727d8	-0.022357866
52	0x3f43c580	0.76473236
53	0xbe374442	-0.17897132
54	0xbec3ab2d	-0.38216534
55	0x3ed50eab	0.41612753
56	0xbf220ba4	-0.6329901
57	0xbf452c3b	-0.77020615
58	0x3e0fe523	0.14052252
59	0xbf01da73	-0.5072395
60	0x3f5d0a57	0.863439
61	0x3f10f62d	0.56625634
62	0x3cba8c6a	0.022772033
63	0x3eb4ddcb	0.35325465
64	0x3f3f53e9	0.7473741
65	0x3e993b8d	0.29928246
66	0x3dd3c4eb	0.103402935
67	0xbe72b869	-0.2370316
68	0x3fcbcc16	1.5921657
69	0xbd20f503	-0.03929616
70	0xbf5c876c	-0.8614414
71	0x3eb77a53	0.35835513
72	0xbf82243e	-1.016731
73	0xbef97ec3	-0.48729524
74	0xbd992f53	-0.074797295
75	0xbe37ae22	-0.1793752
76	0xbc521396	-0.012822052
77	0x3f1b097f	0.60561365
78	0xbf452613	-0.7701122
79	0x3c34ae4d	0.011027885
80	0x3ed69018	0.4190681
81	0x3ecc0036	0.3984391
82	0x3f11c461	0.56940275
83	0xbed0c198	-0.407727
84	0x3e7084c3	0.23488145
85	0x3df8a97e	0.12141703
86	0xbebcebba	-0.36898595
87	0xbefda4cd	-0.49539796
88	0xbf5bb1a4	-0.85817933
89	0x3f682057	0.90674347
90	0xbec28be8	-0.37997365
91	0xbe3b8465	-0.18312223
92	0x3f14a990	0.5807123
93	0x3e7295ac	0.23689908
94	0x3e25c227	0.16187344
95	0x3d4cc9fc	0.049997315
96	0x3d07f972	0.033196874
97	0x3ea4d985	0.32197204
98	0xbdccbf12	-0.09997381
99	0xbf0f1ec7	-0.5590634
100	0x3f908ae8	1.1292391
101	0xbe618736	-0.22024235
102	0x3eceb944	0.4037572
103	0xbdbd7fd4	-0.09252897
104	0xbee06fd2	-0.43835312
105	0xbf34702f	-0.7048368
106	0xbd46ca16	-0.048532568
107	0xbeec2f23	-0.46129712
108	0x3db29a8b	0.08720883
109	0xbef3b6a2	-0.47600275
110	0x3ef74bc0	0.4829998
111	0xbf905114	-1.1274743
112	0xbd529985	-0.05141594
113	0x3e45e2c9	0.19324793
114	0x3eae301c	0.3402108
115	0x3fe1d7c2	1.7643969
116	0xbe671480	-0.22566414
117	0xbf31ae7e	-0.6940688
118	0x3f177204	0.5915835
119	0x3ea21bad	0.3166174
120	0x3edaf9d0	0.42768717
121	0x3e6c5300	0.23078537
122	0x3eabc409	0.33548
123	0xbe2b6fe5	-0.16741903
124	0x3cb218ee	0.021740403
125	0x3f0665e4	0.5249922
126	0x3e70d37b	0.23518173
127	0xbf323e37	-0.6962618
128	0x3d6726ae	0.056433372
129	0xbd98b9cb	-0.07457312
130	0xbd34fe9b	-0.044188123
131	0xbea4b131	-0.32166436
132	0xbf53c7c2	-0.8272668
133	0xbc65ceca	-0.014026353
134	0xbda2d6d3	-0.07951131
135	0xbe3b5343	-0.1829348
136	0xbe354017	-0.1770023
137	0xbdafd99a	-0.08586426
138	0xbf79bb4f	-0.97551435
139	0xbed851b1	-0.42249826
140	0xbe6b4532	-0.22975615
141	0x3c80b0cd	0.015709305
142	0xbf4aec51	-0.7926684
143	0xbe908397	-0.28225395
144	0x3e42c572	0.19020632
145	0xbd6f19ab	-0.05837409
146	0xbe85ea4a	-0.2615531
147	0x3fc1e588	1.5148172
148	0x3e413b20	0.1887021
149	0xbdad1681	-0.08451558
150	0x3f3c901b	0.7365739
151	0xbe339c56	-0.17540106
152	0x3f15ec5c	0.5856378
153	0xbdda7f65	-0.1066883
154	0x3d22fe9b	0.039793592
155	0x3d5779d5	0.052606422
156	0xbf1c890b	-0.6114661
157	0x3f963c97	1.173724
158	0x3ecc6757	0.39922592
159	0xbec63222	-0.38710123
160	0x3e500098	0.20312726
161	0xbd87822b	-0.066166244
162	0x3e3936e4	0.18087345
163	0x3f9fdc81	1.2489167
164	0xbefecc24	-0.49765122
165	0xbeed0ebf	-0.46300313
166	0xbcb87ddd	-0.022520954
167	0x3eaee609	0.34159878
168	0x3e849131	0.25892022
169	0xbdfd38af	-0.12364327
170	0x3e704099	0.23462142
171	0x3e956f75	0.29186597
172	0x3e23ebae	0.16007873
173	0x3f186ca7	0.5954079
174	0xbf05f28b	-0.52323216
175	0xbf072a69	-0.5279909
176	0x3f798ddf	0.97482103
177	0x3f158090	0.58399296
178	0x3d8bffef	0.06835925
179	0x3f59e9be	0.8512229
180	0xbcbb7248	-0.022881642
181	0xbed68478	-0.4189794
182	0xbdfdf501	-0.124002464
183	0x3f0c0e10	0.5470896
184	0x3ede3d02	0.4340592
185	0xbd128d25	-0.035779137
186	0x3d54d859	0.051964138
187	0x3f10dc9e	0.56586635
188	0x3e9b1154	0.30286658
189	0x3c3c3630	0.011487529
190	0xbf3c6db2	-0.7360488
191	0x3e5a797f	0.2133541
192	0xbf28637a	-0.6577679
193	0x3e1e46b0	0.15456653
194	0xbf3984c7	-0.7246823
195	0xbfdbd30c	-1.7173781
196	0x3f45602a	0.7709986
197	0x3f365974	0.71230245
198	0xbf13ba2d	-0.57705957
199	0xbf991e7e	-1.196243
200	0xc0639db0	-3.5564995
201	0xbf2f3caa	-0.6845194
202	0x3d2ea72b	0.042639893
203	0xbda42ccf	-0.08016359
204	0x3cf39bb2	0.029737327
205	0xbea90d76	-0.33018082
206	0xbf2c075c	-0.6719873
207	0x3f1689c7	0.5880398
208	0x3f2ff920	0.6873951
209	0xbe6bbb4d	-0.23020668
210	0xbee7ebf3	-0.45297202
211	0xbe12fc9a	-0.14354172
212	0x3fb58b1d	1.4183079
213	0xbe7a0cb1	-0.24418904
214	0xbe34ef8b	-0.17669503
215	0xbf7e5ace	-0.99357307
216	0x3f05d3d9	0.5227638
217	0xbf8fbef2	-1.1230147
218	0x3ec4b5bf	0.3841991
219	0x3e68e90f	0.22745155
220	0x3f109b2e	0.56486785
221	0xbe9ed55a	-0.3102215
222	0xbe65fc31	-0.22459485
223	0xbf8e1113	-1.1098961
224	0xbec44bd9	-0.38339117
225	0xbc8fbdc5	-0.017546544
226	0x3ea58903	0.32331094
227	0x3ef11983	0.47089776
228	0x3d911c51	0.07085479
229	0xbeb2a626	-0.34892386
230	0x3f2e7dd6	0.6816076
231	0x3f11957b	0.56868714
232	0xbf1d32e9	-0.6140581
233	0xbe575d7a	-0.21031752
234	0x3ee7ad69	0.4524949
235	0x3e5eeb35	0.21769412
236	0x3eff101f	0.49816987
237	0x3d6c62f9	0.057711575
238	0x3ef69352	0.4815927
239	0xbed1c4ca	-0.4097045
240	0xbe2c7760	-0.16842413
241	0x3f3ae3fe	0.7300414
242	0x3eed6278	0.46364188
243	0xbef23fbd	-0.47314253
244	0x3f557138	0.83375883
245	0xbe953bb5	-0.29147115
246	0x3f263e71	0.6493903
247	0x3d8dad47	0.06917816
248	0x3d728749	0.05921105
249	0x3e733ae5	0.23752935
250	0x3e91407d	0.28369513
251	0xbf27e59e	-0.65584743
252	0xbe67c8a2	-0.22635129
253	0x3e056ecb	0.13030545
254	0x3fa2990d	1.2702957
255	0x3f5ed2bf	0.87040323
